<?xml version="1.0" ?>
<net name="model-0000" version="11">
	<layers>
		<layer id="0" name="data" type="Parameter" version="opset1">
			<data shape="1,3,112,112" element_type="f32"/>
			<rt_info>
				<attribute name="fused_names" version="0" value="data"/>
			</rt_info>
			<output>
				<port id="0" precision="FP32" names="data,data:0">
					<dim>1</dim>
					<dim>3</dim>
					<dim>112</dim>
					<dim>112</dim>
				</port>
			</output>
		</layer>
		<layer id="1" name="data_mul_8959" type="Const" version="opset1">
			<data element_type="f32" shape="1, 1, 1, 1" offset="0" size="4"/>
			<rt_info>
				<attribute name="fused_names" version="0" value="data_mul_8959"/>
			</rt_info>
			<output>
				<port id="0" precision="FP32">
					<dim>1</dim>
					<dim>1</dim>
					<dim>1</dim>
					<dim>1</dim>
				</port>
			</output>
		</layer>
		<layer id="2" name="_mulscalar0/lin_/Fused_Mul_" type="Multiply" version="opset1">
			<data auto_broadcast="numpy"/>
			<rt_info>
				<attribute name="fused_names" version="0" value="_mulscalar0/lin_/Fused_Mul_"/>
			</rt_info>
			<input>
				<port id="0" precision="FP32">
					<dim>1</dim>
					<dim>3</dim>
					<dim>112</dim>
					<dim>112</dim>
				</port>
				<port id="1" precision="FP32">
					<dim>1</dim>
					<dim>1</dim>
					<dim>1</dim>
					<dim>1</dim>
				</port>
			</input>
			<output>
				<port id="2" precision="FP32">
					<dim>1</dim>
					<dim>3</dim>
					<dim>112</dim>
					<dim>112</dim>
				</port>
			</output>
		</layer>
		<layer id="3" name="data_add_8961" type="Const" version="opset1">
			<data element_type="f32" shape="1, 1, 1, 1" offset="4" size="4"/>
			<rt_info>
				<attribute name="fused_names" version="0" value="data_add_8961"/>
			</rt_info>
			<output>
				<port id="0" precision="FP32">
					<dim>1</dim>
					<dim>1</dim>
					<dim>1</dim>
					<dim>1</dim>
				</port>
			</output>
		</layer>
		<layer id="4" name="_minusscalar0/lin_/Fused_Add_" type="Add" version="opset1">
			<data auto_broadcast="numpy"/>
			<rt_info>
				<attribute name="fused_names" version="0" value="_minusscalar0/lin_/Fused_Add_"/>
			</rt_info>
			<input>
				<port id="0" precision="FP32">
					<dim>1</dim>
					<dim>3</dim>
					<dim>112</dim>
					<dim>112</dim>
				</port>
				<port id="1" precision="FP32">
					<dim>1</dim>
					<dim>1</dim>
					<dim>1</dim>
					<dim>1</dim>
				</port>
			</input>
			<output>
				<port id="2" precision="FP32" names="_mulscalar0:0">
					<dim>1</dim>
					<dim>3</dim>
					<dim>112</dim>
					<dim>112</dim>
				</port>
			</output>
		</layer>
		<layer id="5" name="conv_1_batchnorm/mean/Fused_Mul__copy" type="Const" version="opset1">
			<data element_type="f32" shape="64, 3, 3, 3" offset="8" size="6912"/>
			<rt_info>
				<attribute name="fused_names" version="0" value="conv_1_batchnorm/mean/Fused_Mul__copy"/>
			</rt_info>
			<output>
				<port id="0" precision="FP32" names="conv_1_conv2d_weight:0">
					<dim>64</dim>
					<dim>3</dim>
					<dim>3</dim>
					<dim>3</dim>
				</port>
			</output>
		</layer>
		<layer id="6" name="conv_1_conv2d" type="Convolution" version="opset1">
			<data strides="2, 2" dilations="1, 1" pads_begin="1, 1" pads_end="1, 1" auto_pad="explicit"/>
			<rt_info>
				<attribute name="fused_names" version="0" value="conv_1_conv2d"/>
			</rt_info>
			<input>
				<port id="0" precision="FP32">
					<dim>1</dim>
					<dim>3</dim>
					<dim>112</dim>
					<dim>112</dim>
				</port>
				<port id="1" precision="FP32">
					<dim>64</dim>
					<dim>3</dim>
					<dim>3</dim>
					<dim>3</dim>
				</port>
			</input>
			<output>
				<port id="2" precision="FP32">
					<dim>1</dim>
					<dim>64</dim>
					<dim>56</dim>
					<dim>56</dim>
				</port>
			</output>
		</layer>
		<layer id="7" name="data_add_89648969" type="Const" version="opset1">
			<data element_type="f32" shape="1, 64, 1, 1" offset="6920" size="256"/>
			<rt_info>
				<attribute name="fused_names" version="0" value="data_add_89648969"/>
			</rt_info>
			<output>
				<port id="0" precision="FP32">
					<dim>1</dim>
					<dim>64</dim>
					<dim>1</dim>
					<dim>1</dim>
				</port>
			</output>
		</layer>
		<layer id="8" name="conv_1_batchnorm/variance/Fused_Add_" type="Add" version="opset1">
			<data auto_broadcast="numpy"/>
			<rt_info>
				<attribute name="fused_names" version="0" value="conv_1_batchnorm/variance/Fused_Add_"/>
			</rt_info>
			<input>
				<port id="0" precision="FP32">
					<dim>1</dim>
					<dim>64</dim>
					<dim>56</dim>
					<dim>56</dim>
				</port>
				<port id="1" precision="FP32">
					<dim>1</dim>
					<dim>64</dim>
					<dim>1</dim>
					<dim>1</dim>
				</port>
			</input>
			<output>
				<port id="2" precision="FP32" names="conv_1_batchnorm:0">
					<dim>1</dim>
					<dim>64</dim>
					<dim>56</dim>
					<dim>56</dim>
				</port>
			</output>
		</layer>
		<layer id="9" name="conv_1_relu_gamma" type="Const" version="opset1">
			<data element_type="f32" shape="64" offset="7176" size="256"/>
			<rt_info>
				<attribute name="fused_names" version="0" value="conv_1_relu_gamma"/>
			</rt_info>
			<output>
				<port id="0" precision="FP32" names="conv_1_relu_gamma:0">
					<dim>64</dim>
				</port>
			</output>
		</layer>
		<layer id="10" name="conv_1_relu" type="PReLU" version="opset1">
			<rt_info>
				<attribute name="fused_names" version="0" value="conv_1_relu"/>
			</rt_info>
			<input>
				<port id="0" precision="FP32">
					<dim>1</dim>
					<dim>64</dim>
					<dim>56</dim>
					<dim>56</dim>
				</port>
				<port id="1" precision="FP32">
					<dim>64</dim>
				</port>
			</input>
			<output>
				<port id="2" precision="FP32" names="conv_1_relu:0">
					<dim>1</dim>
					<dim>64</dim>
					<dim>56</dim>
					<dim>56</dim>
				</port>
			</output>
		</layer>
		<layer id="11" name="conv_2_dw_batchnorm/mean/Fused_Mul__copy" type="Const" version="opset1">
			<data element_type="f32" shape="64, 1, 1, 3, 3" offset="7432" size="2304"/>
			<rt_info>
				<attribute name="fused_names" version="0" value="conv_2_dw_batchnorm/mean/Fused_Mul__copy"/>
			</rt_info>
			<output>
				<port id="0" precision="FP32" names="conv_2_dw_conv2d_weight:0">
					<dim>64</dim>
					<dim>1</dim>
					<dim>1</dim>
					<dim>3</dim>
					<dim>3</dim>
				</port>
			</output>
		</layer>
		<layer id="12" name="conv_2_dw_conv2d" type="GroupConvolution" version="opset1">
			<data strides="1, 1" pads_begin="1, 1" pads_end="1, 1" dilations="1, 1" auto_pad="explicit"/>
			<rt_info>
				<attribute name="fused_names" version="0" value="conv_2_dw_conv2d"/>
			</rt_info>
			<input>
				<port id="0" precision="FP32">
					<dim>1</dim>
					<dim>64</dim>
					<dim>56</dim>
					<dim>56</dim>
				</port>
				<port id="1" precision="FP32">
					<dim>64</dim>
					<dim>1</dim>
					<dim>1</dim>
					<dim>3</dim>
					<dim>3</dim>
				</port>
			</input>
			<output>
				<port id="2" precision="FP32">
					<dim>1</dim>
					<dim>64</dim>
					<dim>56</dim>
					<dim>56</dim>
				</port>
			</output>
		</layer>
		<layer id="13" name="data_add_89728977" type="Const" version="opset1">
			<data element_type="f32" shape="1, 64, 1, 1" offset="9736" size="256"/>
			<rt_info>
				<attribute name="fused_names" version="0" value="data_add_89728977"/>
			</rt_info>
			<output>
				<port id="0" precision="FP32">
					<dim>1</dim>
					<dim>64</dim>
					<dim>1</dim>
					<dim>1</dim>
				</port>
			</output>
		</layer>
		<layer id="14" name="conv_2_dw_batchnorm/variance/Fused_Add_" type="Add" version="opset1">
			<data auto_broadcast="numpy"/>
			<rt_info>
				<attribute name="fused_names" version="0" value="conv_2_dw_batchnorm/variance/Fused_Add_"/>
			</rt_info>
			<input>
				<port id="0" precision="FP32">
					<dim>1</dim>
					<dim>64</dim>
					<dim>56</dim>
					<dim>56</dim>
				</port>
				<port id="1" precision="FP32">
					<dim>1</dim>
					<dim>64</dim>
					<dim>1</dim>
					<dim>1</dim>
				</port>
			</input>
			<output>
				<port id="2" precision="FP32" names="conv_2_dw_batchnorm:0">
					<dim>1</dim>
					<dim>64</dim>
					<dim>56</dim>
					<dim>56</dim>
				</port>
			</output>
		</layer>
		<layer id="15" name="conv_2_dw_relu_gamma" type="Const" version="opset1">
			<data element_type="f32" shape="64" offset="9992" size="256"/>
			<rt_info>
				<attribute name="fused_names" version="0" value="conv_2_dw_relu_gamma"/>
			</rt_info>
			<output>
				<port id="0" precision="FP32" names="conv_2_dw_relu_gamma:0">
					<dim>64</dim>
				</port>
			</output>
		</layer>
		<layer id="16" name="conv_2_dw_relu" type="PReLU" version="opset1">
			<rt_info>
				<attribute name="fused_names" version="0" value="conv_2_dw_relu"/>
			</rt_info>
			<input>
				<port id="0" precision="FP32">
					<dim>1</dim>
					<dim>64</dim>
					<dim>56</dim>
					<dim>56</dim>
				</port>
				<port id="1" precision="FP32">
					<dim>64</dim>
				</port>
			</input>
			<output>
				<port id="2" precision="FP32" names="conv_2_dw_relu:0">
					<dim>1</dim>
					<dim>64</dim>
					<dim>56</dim>
					<dim>56</dim>
				</port>
			</output>
		</layer>
		<layer id="17" name="dconv_23_conv_sep_batchnorm/mean/Fused_Mul__copy" type="Const" version="opset1">
			<data element_type="f32" shape="128, 64, 1, 1" offset="10248" size="32768"/>
			<rt_info>
				<attribute name="fused_names" version="0" value="dconv_23_conv_sep_batchnorm/mean/Fused_Mul__copy"/>
			</rt_info>
			<output>
				<port id="0" precision="FP32" names="dconv_23_conv_sep_conv2d_weight:0">
					<dim>128</dim>
					<dim>64</dim>
					<dim>1</dim>
					<dim>1</dim>
				</port>
			</output>
		</layer>
		<layer id="18" name="dconv_23_conv_sep_conv2d" type="Convolution" version="opset1">
			<data strides="1, 1" dilations="1, 1" pads_begin="0, 0" pads_end="0, 0" auto_pad="explicit"/>
			<rt_info>
				<attribute name="fused_names" version="0" value="dconv_23_conv_sep_conv2d"/>
			</rt_info>
			<input>
				<port id="0" precision="FP32">
					<dim>1</dim>
					<dim>64</dim>
					<dim>56</dim>
					<dim>56</dim>
				</port>
				<port id="1" precision="FP32">
					<dim>128</dim>
					<dim>64</dim>
					<dim>1</dim>
					<dim>1</dim>
				</port>
			</input>
			<output>
				<port id="2" precision="FP32">
					<dim>1</dim>
					<dim>128</dim>
					<dim>56</dim>
					<dim>56</dim>
				</port>
			</output>
		</layer>
		<layer id="19" name="data_add_89808985" type="Const" version="opset1">
			<data element_type="f32" shape="1, 128, 1, 1" offset="43016" size="512"/>
			<rt_info>
				<attribute name="fused_names" version="0" value="data_add_89808985"/>
			</rt_info>
			<output>
				<port id="0" precision="FP32">
					<dim>1</dim>
					<dim>128</dim>
					<dim>1</dim>
					<dim>1</dim>
				</port>
			</output>
		</layer>
		<layer id="20" name="dconv_23_conv_sep_batchnorm/variance/Fused_Add_" type="Add" version="opset1">
			<data auto_broadcast="numpy"/>
			<rt_info>
				<attribute name="fused_names" version="0" value="dconv_23_conv_sep_batchnorm/variance/Fused_Add_"/>
			</rt_info>
			<input>
				<port id="0" precision="FP32">
					<dim>1</dim>
					<dim>128</dim>
					<dim>56</dim>
					<dim>56</dim>
				</port>
				<port id="1" precision="FP32">
					<dim>1</dim>
					<dim>128</dim>
					<dim>1</dim>
					<dim>1</dim>
				</port>
			</input>
			<output>
				<port id="2" precision="FP32" names="dconv_23_conv_sep_batchnorm:0">
					<dim>1</dim>
					<dim>128</dim>
					<dim>56</dim>
					<dim>56</dim>
				</port>
			</output>
		</layer>
		<layer id="21" name="dconv_23_conv_sep_relu_gamma" type="Const" version="opset1">
			<data element_type="f32" shape="128" offset="43528" size="512"/>
			<rt_info>
				<attribute name="fused_names" version="0" value="dconv_23_conv_sep_relu_gamma"/>
			</rt_info>
			<output>
				<port id="0" precision="FP32" names="dconv_23_conv_sep_relu_gamma:0">
					<dim>128</dim>
				</port>
			</output>
		</layer>
		<layer id="22" name="dconv_23_conv_sep_relu" type="PReLU" version="opset1">
			<rt_info>
				<attribute name="fused_names" version="0" value="dconv_23_conv_sep_relu"/>
			</rt_info>
			<input>
				<port id="0" precision="FP32">
					<dim>1</dim>
					<dim>128</dim>
					<dim>56</dim>
					<dim>56</dim>
				</port>
				<port id="1" precision="FP32">
					<dim>128</dim>
				</port>
			</input>
			<output>
				<port id="2" precision="FP32" names="dconv_23_conv_sep_relu:0">
					<dim>1</dim>
					<dim>128</dim>
					<dim>56</dim>
					<dim>56</dim>
				</port>
			</output>
		</layer>
		<layer id="23" name="dconv_23_conv_dw_batchnorm/mean/Fused_Mul__copy" type="Const" version="opset1">
			<data element_type="f32" shape="128, 1, 1, 3, 3" offset="44040" size="4608"/>
			<rt_info>
				<attribute name="fused_names" version="0" value="dconv_23_conv_dw_batchnorm/mean/Fused_Mul__copy"/>
			</rt_info>
			<output>
				<port id="0" precision="FP32" names="dconv_23_conv_dw_conv2d_weight:0">
					<dim>128</dim>
					<dim>1</dim>
					<dim>1</dim>
					<dim>3</dim>
					<dim>3</dim>
				</port>
			</output>
		</layer>
		<layer id="24" name="dconv_23_conv_dw_conv2d" type="GroupConvolution" version="opset1">
			<data strides="2, 2" pads_begin="1, 1" pads_end="1, 1" dilations="1, 1" auto_pad="explicit"/>
			<rt_info>
				<attribute name="fused_names" version="0" value="dconv_23_conv_dw_conv2d"/>
			</rt_info>
			<input>
				<port id="0" precision="FP32">
					<dim>1</dim>
					<dim>128</dim>
					<dim>56</dim>
					<dim>56</dim>
				</port>
				<port id="1" precision="FP32">
					<dim>128</dim>
					<dim>1</dim>
					<dim>1</dim>
					<dim>3</dim>
					<dim>3</dim>
				</port>
			</input>
			<output>
				<port id="2" precision="FP32">
					<dim>1</dim>
					<dim>128</dim>
					<dim>28</dim>
					<dim>28</dim>
				</port>
			</output>
		</layer>
		<layer id="25" name="data_add_89888993" type="Const" version="opset1">
			<data element_type="f32" shape="1, 128, 1, 1" offset="48648" size="512"/>
			<rt_info>
				<attribute name="fused_names" version="0" value="data_add_89888993"/>
			</rt_info>
			<output>
				<port id="0" precision="FP32">
					<dim>1</dim>
					<dim>128</dim>
					<dim>1</dim>
					<dim>1</dim>
				</port>
			</output>
		</layer>
		<layer id="26" name="dconv_23_conv_dw_batchnorm/variance/Fused_Add_" type="Add" version="opset1">
			<data auto_broadcast="numpy"/>
			<rt_info>
				<attribute name="fused_names" version="0" value="dconv_23_conv_dw_batchnorm/variance/Fused_Add_"/>
			</rt_info>
			<input>
				<port id="0" precision="FP32">
					<dim>1</dim>
					<dim>128</dim>
					<dim>28</dim>
					<dim>28</dim>
				</port>
				<port id="1" precision="FP32">
					<dim>1</dim>
					<dim>128</dim>
					<dim>1</dim>
					<dim>1</dim>
				</port>
			</input>
			<output>
				<port id="2" precision="FP32" names="dconv_23_conv_dw_batchnorm:0">
					<dim>1</dim>
					<dim>128</dim>
					<dim>28</dim>
					<dim>28</dim>
				</port>
			</output>
		</layer>
		<layer id="27" name="dconv_23_conv_dw_relu_gamma" type="Const" version="opset1">
			<data element_type="f32" shape="128" offset="49160" size="512"/>
			<rt_info>
				<attribute name="fused_names" version="0" value="dconv_23_conv_dw_relu_gamma"/>
			</rt_info>
			<output>
				<port id="0" precision="FP32" names="dconv_23_conv_dw_relu_gamma:0">
					<dim>128</dim>
				</port>
			</output>
		</layer>
		<layer id="28" name="dconv_23_conv_dw_relu" type="PReLU" version="opset1">
			<rt_info>
				<attribute name="fused_names" version="0" value="dconv_23_conv_dw_relu"/>
			</rt_info>
			<input>
				<port id="0" precision="FP32">
					<dim>1</dim>
					<dim>128</dim>
					<dim>28</dim>
					<dim>28</dim>
				</port>
				<port id="1" precision="FP32">
					<dim>128</dim>
				</port>
			</input>
			<output>
				<port id="2" precision="FP32" names="dconv_23_conv_dw_relu:0">
					<dim>1</dim>
					<dim>128</dim>
					<dim>28</dim>
					<dim>28</dim>
				</port>
			</output>
		</layer>
		<layer id="29" name="dconv_23_conv_proj_batchnorm/mean/Fused_Mul__copy" type="Const" version="opset1">
			<data element_type="f32" shape="64, 128, 1, 1" offset="49672" size="32768"/>
			<rt_info>
				<attribute name="fused_names" version="0" value="dconv_23_conv_proj_batchnorm/mean/Fused_Mul__copy"/>
			</rt_info>
			<output>
				<port id="0" precision="FP32" names="dconv_23_conv_proj_conv2d_weight:0">
					<dim>64</dim>
					<dim>128</dim>
					<dim>1</dim>
					<dim>1</dim>
				</port>
			</output>
		</layer>
		<layer id="30" name="dconv_23_conv_proj_conv2d" type="Convolution" version="opset1">
			<data strides="1, 1" dilations="1, 1" pads_begin="0, 0" pads_end="0, 0" auto_pad="explicit"/>
			<rt_info>
				<attribute name="fused_names" version="0" value="dconv_23_conv_proj_conv2d"/>
			</rt_info>
			<input>
				<port id="0" precision="FP32">
					<dim>1</dim>
					<dim>128</dim>
					<dim>28</dim>
					<dim>28</dim>
				</port>
				<port id="1" precision="FP32">
					<dim>64</dim>
					<dim>128</dim>
					<dim>1</dim>
					<dim>1</dim>
				</port>
			</input>
			<output>
				<port id="2" precision="FP32">
					<dim>1</dim>
					<dim>64</dim>
					<dim>28</dim>
					<dim>28</dim>
				</port>
			</output>
		</layer>
		<layer id="31" name="data_add_89969001" type="Const" version="opset1">
			<data element_type="f32" shape="1, 64, 1, 1" offset="82440" size="256"/>
			<rt_info>
				<attribute name="fused_names" version="0" value="data_add_89969001"/>
			</rt_info>
			<output>
				<port id="0" precision="FP32">
					<dim>1</dim>
					<dim>64</dim>
					<dim>1</dim>
					<dim>1</dim>
				</port>
			</output>
		</layer>
		<layer id="32" name="dconv_23_conv_proj_batchnorm/variance/Fused_Add_" type="Add" version="opset1">
			<data auto_broadcast="numpy"/>
			<rt_info>
				<attribute name="fused_names" version="0" value="dconv_23_conv_proj_batchnorm/variance/Fused_Add_"/>
			</rt_info>
			<input>
				<port id="0" precision="FP32">
					<dim>1</dim>
					<dim>64</dim>
					<dim>28</dim>
					<dim>28</dim>
				</port>
				<port id="1" precision="FP32">
					<dim>1</dim>
					<dim>64</dim>
					<dim>1</dim>
					<dim>1</dim>
				</port>
			</input>
			<output>
				<port id="2" precision="FP32" names="dconv_23_conv_proj_batchnorm:0">
					<dim>1</dim>
					<dim>64</dim>
					<dim>28</dim>
					<dim>28</dim>
				</port>
			</output>
		</layer>
		<layer id="33" name="res_3_block0_conv_sep_batchnorm/mean/Fused_Mul__copy" type="Const" version="opset1">
			<data element_type="f32" shape="128, 64, 1, 1" offset="82696" size="32768"/>
			<rt_info>
				<attribute name="fused_names" version="0" value="res_3_block0_conv_sep_batchnorm/mean/Fused_Mul__copy"/>
			</rt_info>
			<output>
				<port id="0" precision="FP32" names="res_3_block0_conv_sep_conv2d_weight:0">
					<dim>128</dim>
					<dim>64</dim>
					<dim>1</dim>
					<dim>1</dim>
				</port>
			</output>
		</layer>
		<layer id="34" name="res_3_block0_conv_sep_conv2d" type="Convolution" version="opset1">
			<data strides="1, 1" dilations="1, 1" pads_begin="0, 0" pads_end="0, 0" auto_pad="explicit"/>
			<rt_info>
				<attribute name="fused_names" version="0" value="res_3_block0_conv_sep_conv2d"/>
			</rt_info>
			<input>
				<port id="0" precision="FP32">
					<dim>1</dim>
					<dim>64</dim>
					<dim>28</dim>
					<dim>28</dim>
				</port>
				<port id="1" precision="FP32">
					<dim>128</dim>
					<dim>64</dim>
					<dim>1</dim>
					<dim>1</dim>
				</port>
			</input>
			<output>
				<port id="2" precision="FP32">
					<dim>1</dim>
					<dim>128</dim>
					<dim>28</dim>
					<dim>28</dim>
				</port>
			</output>
		</layer>
		<layer id="35" name="data_add_90049009" type="Const" version="opset1">
			<data element_type="f32" shape="1, 128, 1, 1" offset="115464" size="512"/>
			<rt_info>
				<attribute name="fused_names" version="0" value="data_add_90049009"/>
			</rt_info>
			<output>
				<port id="0" precision="FP32">
					<dim>1</dim>
					<dim>128</dim>
					<dim>1</dim>
					<dim>1</dim>
				</port>
			</output>
		</layer>
		<layer id="36" name="res_3_block0_conv_sep_batchnorm/variance/Fused_Add_" type="Add" version="opset1">
			<data auto_broadcast="numpy"/>
			<rt_info>
				<attribute name="fused_names" version="0" value="res_3_block0_conv_sep_batchnorm/variance/Fused_Add_"/>
			</rt_info>
			<input>
				<port id="0" precision="FP32">
					<dim>1</dim>
					<dim>128</dim>
					<dim>28</dim>
					<dim>28</dim>
				</port>
				<port id="1" precision="FP32">
					<dim>1</dim>
					<dim>128</dim>
					<dim>1</dim>
					<dim>1</dim>
				</port>
			</input>
			<output>
				<port id="2" precision="FP32" names="res_3_block0_conv_sep_batchnorm:0">
					<dim>1</dim>
					<dim>128</dim>
					<dim>28</dim>
					<dim>28</dim>
				</port>
			</output>
		</layer>
		<layer id="37" name="res_3_block0_conv_sep_relu_gamma" type="Const" version="opset1">
			<data element_type="f32" shape="128" offset="115976" size="512"/>
			<rt_info>
				<attribute name="fused_names" version="0" value="res_3_block0_conv_sep_relu_gamma"/>
			</rt_info>
			<output>
				<port id="0" precision="FP32" names="res_3_block0_conv_sep_relu_gamma:0">
					<dim>128</dim>
				</port>
			</output>
		</layer>
		<layer id="38" name="res_3_block0_conv_sep_relu" type="PReLU" version="opset1">
			<rt_info>
				<attribute name="fused_names" version="0" value="res_3_block0_conv_sep_relu"/>
			</rt_info>
			<input>
				<port id="0" precision="FP32">
					<dim>1</dim>
					<dim>128</dim>
					<dim>28</dim>
					<dim>28</dim>
				</port>
				<port id="1" precision="FP32">
					<dim>128</dim>
				</port>
			</input>
			<output>
				<port id="2" precision="FP32" names="res_3_block0_conv_sep_relu:0">
					<dim>1</dim>
					<dim>128</dim>
					<dim>28</dim>
					<dim>28</dim>
				</port>
			</output>
		</layer>
		<layer id="39" name="res_3_block0_conv_dw_batchnorm/mean/Fused_Mul__copy" type="Const" version="opset1">
			<data element_type="f32" shape="128, 1, 1, 3, 3" offset="116488" size="4608"/>
			<rt_info>
				<attribute name="fused_names" version="0" value="res_3_block0_conv_dw_batchnorm/mean/Fused_Mul__copy"/>
			</rt_info>
			<output>
				<port id="0" precision="FP32" names="res_3_block0_conv_dw_conv2d_weight:0">
					<dim>128</dim>
					<dim>1</dim>
					<dim>1</dim>
					<dim>3</dim>
					<dim>3</dim>
				</port>
			</output>
		</layer>
		<layer id="40" name="res_3_block0_conv_dw_conv2d" type="GroupConvolution" version="opset1">
			<data strides="1, 1" pads_begin="1, 1" pads_end="1, 1" dilations="1, 1" auto_pad="explicit"/>
			<rt_info>
				<attribute name="fused_names" version="0" value="res_3_block0_conv_dw_conv2d"/>
			</rt_info>
			<input>
				<port id="0" precision="FP32">
					<dim>1</dim>
					<dim>128</dim>
					<dim>28</dim>
					<dim>28</dim>
				</port>
				<port id="1" precision="FP32">
					<dim>128</dim>
					<dim>1</dim>
					<dim>1</dim>
					<dim>3</dim>
					<dim>3</dim>
				</port>
			</input>
			<output>
				<port id="2" precision="FP32">
					<dim>1</dim>
					<dim>128</dim>
					<dim>28</dim>
					<dim>28</dim>
				</port>
			</output>
		</layer>
		<layer id="41" name="data_add_90129017" type="Const" version="opset1">
			<data element_type="f32" shape="1, 128, 1, 1" offset="121096" size="512"/>
			<rt_info>
				<attribute name="fused_names" version="0" value="data_add_90129017"/>
			</rt_info>
			<output>
				<port id="0" precision="FP32">
					<dim>1</dim>
					<dim>128</dim>
					<dim>1</dim>
					<dim>1</dim>
				</port>
			</output>
		</layer>
		<layer id="42" name="res_3_block0_conv_dw_batchnorm/variance/Fused_Add_" type="Add" version="opset1">
			<data auto_broadcast="numpy"/>
			<rt_info>
				<attribute name="fused_names" version="0" value="res_3_block0_conv_dw_batchnorm/variance/Fused_Add_"/>
			</rt_info>
			<input>
				<port id="0" precision="FP32">
					<dim>1</dim>
					<dim>128</dim>
					<dim>28</dim>
					<dim>28</dim>
				</port>
				<port id="1" precision="FP32">
					<dim>1</dim>
					<dim>128</dim>
					<dim>1</dim>
					<dim>1</dim>
				</port>
			</input>
			<output>
				<port id="2" precision="FP32" names="res_3_block0_conv_dw_batchnorm:0">
					<dim>1</dim>
					<dim>128</dim>
					<dim>28</dim>
					<dim>28</dim>
				</port>
			</output>
		</layer>
		<layer id="43" name="res_3_block0_conv_dw_relu_gamma" type="Const" version="opset1">
			<data element_type="f32" shape="128" offset="121608" size="512"/>
			<rt_info>
				<attribute name="fused_names" version="0" value="res_3_block0_conv_dw_relu_gamma"/>
			</rt_info>
			<output>
				<port id="0" precision="FP32" names="res_3_block0_conv_dw_relu_gamma:0">
					<dim>128</dim>
				</port>
			</output>
		</layer>
		<layer id="44" name="res_3_block0_conv_dw_relu" type="PReLU" version="opset1">
			<rt_info>
				<attribute name="fused_names" version="0" value="res_3_block0_conv_dw_relu"/>
			</rt_info>
			<input>
				<port id="0" precision="FP32">
					<dim>1</dim>
					<dim>128</dim>
					<dim>28</dim>
					<dim>28</dim>
				</port>
				<port id="1" precision="FP32">
					<dim>128</dim>
				</port>
			</input>
			<output>
				<port id="2" precision="FP32" names="res_3_block0_conv_dw_relu:0">
					<dim>1</dim>
					<dim>128</dim>
					<dim>28</dim>
					<dim>28</dim>
				</port>
			</output>
		</layer>
		<layer id="45" name="res_3_block0_conv_proj_batchnorm/mean/Fused_Mul__copy" type="Const" version="opset1">
			<data element_type="f32" shape="64, 128, 1, 1" offset="122120" size="32768"/>
			<rt_info>
				<attribute name="fused_names" version="0" value="res_3_block0_conv_proj_batchnorm/mean/Fused_Mul__copy"/>
			</rt_info>
			<output>
				<port id="0" precision="FP32" names="res_3_block0_conv_proj_conv2d_weight:0">
					<dim>64</dim>
					<dim>128</dim>
					<dim>1</dim>
					<dim>1</dim>
				</port>
			</output>
		</layer>
		<layer id="46" name="res_3_block0_conv_proj_conv2d" type="Convolution" version="opset1">
			<data strides="1, 1" dilations="1, 1" pads_begin="0, 0" pads_end="0, 0" auto_pad="explicit"/>
			<rt_info>
				<attribute name="fused_names" version="0" value="res_3_block0_conv_proj_conv2d"/>
			</rt_info>
			<input>
				<port id="0" precision="FP32">
					<dim>1</dim>
					<dim>128</dim>
					<dim>28</dim>
					<dim>28</dim>
				</port>
				<port id="1" precision="FP32">
					<dim>64</dim>
					<dim>128</dim>
					<dim>1</dim>
					<dim>1</dim>
				</port>
			</input>
			<output>
				<port id="2" precision="FP32">
					<dim>1</dim>
					<dim>64</dim>
					<dim>28</dim>
					<dim>28</dim>
				</port>
			</output>
		</layer>
		<layer id="47" name="data_add_90209025" type="Const" version="opset1">
			<data element_type="f32" shape="1, 64, 1, 1" offset="154888" size="256"/>
			<rt_info>
				<attribute name="fused_names" version="0" value="data_add_90209025"/>
			</rt_info>
			<output>
				<port id="0" precision="FP32">
					<dim>1</dim>
					<dim>64</dim>
					<dim>1</dim>
					<dim>1</dim>
				</port>
			</output>
		</layer>
		<layer id="48" name="res_3_block0_conv_proj_batchnorm/variance/Fused_Add_" type="Add" version="opset1">
			<data auto_broadcast="numpy"/>
			<rt_info>
				<attribute name="fused_names" version="0" value="res_3_block0_conv_proj_batchnorm/variance/Fused_Add_"/>
			</rt_info>
			<input>
				<port id="0" precision="FP32">
					<dim>1</dim>
					<dim>64</dim>
					<dim>28</dim>
					<dim>28</dim>
				</port>
				<port id="1" precision="FP32">
					<dim>1</dim>
					<dim>64</dim>
					<dim>1</dim>
					<dim>1</dim>
				</port>
			</input>
			<output>
				<port id="2" precision="FP32" names="res_3_block0_conv_proj_batchnorm:0">
					<dim>1</dim>
					<dim>64</dim>
					<dim>28</dim>
					<dim>28</dim>
				</port>
			</output>
		</layer>
		<layer id="49" name="_plus0" type="Add" version="opset1">
			<data auto_broadcast="numpy"/>
			<rt_info>
				<attribute name="fused_names" version="0" value="_plus0"/>
			</rt_info>
			<input>
				<port id="0" precision="FP32">
					<dim>1</dim>
					<dim>64</dim>
					<dim>28</dim>
					<dim>28</dim>
				</port>
				<port id="1" precision="FP32">
					<dim>1</dim>
					<dim>64</dim>
					<dim>28</dim>
					<dim>28</dim>
				</port>
			</input>
			<output>
				<port id="2" precision="FP32" names="_plus0:0">
					<dim>1</dim>
					<dim>64</dim>
					<dim>28</dim>
					<dim>28</dim>
				</port>
			</output>
		</layer>
		<layer id="50" name="res_3_block1_conv_sep_batchnorm/mean/Fused_Mul__copy" type="Const" version="opset1">
			<data element_type="f32" shape="128, 64, 1, 1" offset="155144" size="32768"/>
			<rt_info>
				<attribute name="fused_names" version="0" value="res_3_block1_conv_sep_batchnorm/mean/Fused_Mul__copy"/>
			</rt_info>
			<output>
				<port id="0" precision="FP32" names="res_3_block1_conv_sep_conv2d_weight:0">
					<dim>128</dim>
					<dim>64</dim>
					<dim>1</dim>
					<dim>1</dim>
				</port>
			</output>
		</layer>
		<layer id="51" name="res_3_block1_conv_sep_conv2d" type="Convolution" version="opset1">
			<data strides="1, 1" dilations="1, 1" pads_begin="0, 0" pads_end="0, 0" auto_pad="explicit"/>
			<rt_info>
				<attribute name="fused_names" version="0" value="res_3_block1_conv_sep_conv2d"/>
			</rt_info>
			<input>
				<port id="0" precision="FP32">
					<dim>1</dim>
					<dim>64</dim>
					<dim>28</dim>
					<dim>28</dim>
				</port>
				<port id="1" precision="FP32">
					<dim>128</dim>
					<dim>64</dim>
					<dim>1</dim>
					<dim>1</dim>
				</port>
			</input>
			<output>
				<port id="2" precision="FP32">
					<dim>1</dim>
					<dim>128</dim>
					<dim>28</dim>
					<dim>28</dim>
				</port>
			</output>
		</layer>
		<layer id="52" name="data_add_90289033" type="Const" version="opset1">
			<data element_type="f32" shape="1, 128, 1, 1" offset="187912" size="512"/>
			<rt_info>
				<attribute name="fused_names" version="0" value="data_add_90289033"/>
			</rt_info>
			<output>
				<port id="0" precision="FP32">
					<dim>1</dim>
					<dim>128</dim>
					<dim>1</dim>
					<dim>1</dim>
				</port>
			</output>
		</layer>
		<layer id="53" name="res_3_block1_conv_sep_batchnorm/variance/Fused_Add_" type="Add" version="opset1">
			<data auto_broadcast="numpy"/>
			<rt_info>
				<attribute name="fused_names" version="0" value="res_3_block1_conv_sep_batchnorm/variance/Fused_Add_"/>
			</rt_info>
			<input>
				<port id="0" precision="FP32">
					<dim>1</dim>
					<dim>128</dim>
					<dim>28</dim>
					<dim>28</dim>
				</port>
				<port id="1" precision="FP32">
					<dim>1</dim>
					<dim>128</dim>
					<dim>1</dim>
					<dim>1</dim>
				</port>
			</input>
			<output>
				<port id="2" precision="FP32" names="res_3_block1_conv_sep_batchnorm:0">
					<dim>1</dim>
					<dim>128</dim>
					<dim>28</dim>
					<dim>28</dim>
				</port>
			</output>
		</layer>
		<layer id="54" name="res_3_block1_conv_sep_relu_gamma" type="Const" version="opset1">
			<data element_type="f32" shape="128" offset="188424" size="512"/>
			<rt_info>
				<attribute name="fused_names" version="0" value="res_3_block1_conv_sep_relu_gamma"/>
			</rt_info>
			<output>
				<port id="0" precision="FP32" names="res_3_block1_conv_sep_relu_gamma:0">
					<dim>128</dim>
				</port>
			</output>
		</layer>
		<layer id="55" name="res_3_block1_conv_sep_relu" type="PReLU" version="opset1">
			<rt_info>
				<attribute name="fused_names" version="0" value="res_3_block1_conv_sep_relu"/>
			</rt_info>
			<input>
				<port id="0" precision="FP32">
					<dim>1</dim>
					<dim>128</dim>
					<dim>28</dim>
					<dim>28</dim>
				</port>
				<port id="1" precision="FP32">
					<dim>128</dim>
				</port>
			</input>
			<output>
				<port id="2" precision="FP32" names="res_3_block1_conv_sep_relu:0">
					<dim>1</dim>
					<dim>128</dim>
					<dim>28</dim>
					<dim>28</dim>
				</port>
			</output>
		</layer>
		<layer id="56" name="res_3_block1_conv_dw_batchnorm/mean/Fused_Mul__copy" type="Const" version="opset1">
			<data element_type="f32" shape="128, 1, 1, 3, 3" offset="188936" size="4608"/>
			<rt_info>
				<attribute name="fused_names" version="0" value="res_3_block1_conv_dw_batchnorm/mean/Fused_Mul__copy"/>
			</rt_info>
			<output>
				<port id="0" precision="FP32" names="res_3_block1_conv_dw_conv2d_weight:0">
					<dim>128</dim>
					<dim>1</dim>
					<dim>1</dim>
					<dim>3</dim>
					<dim>3</dim>
				</port>
			</output>
		</layer>
		<layer id="57" name="res_3_block1_conv_dw_conv2d" type="GroupConvolution" version="opset1">
			<data strides="1, 1" pads_begin="1, 1" pads_end="1, 1" dilations="1, 1" auto_pad="explicit"/>
			<rt_info>
				<attribute name="fused_names" version="0" value="res_3_block1_conv_dw_conv2d"/>
			</rt_info>
			<input>
				<port id="0" precision="FP32">
					<dim>1</dim>
					<dim>128</dim>
					<dim>28</dim>
					<dim>28</dim>
				</port>
				<port id="1" precision="FP32">
					<dim>128</dim>
					<dim>1</dim>
					<dim>1</dim>
					<dim>3</dim>
					<dim>3</dim>
				</port>
			</input>
			<output>
				<port id="2" precision="FP32">
					<dim>1</dim>
					<dim>128</dim>
					<dim>28</dim>
					<dim>28</dim>
				</port>
			</output>
		</layer>
		<layer id="58" name="data_add_90369041" type="Const" version="opset1">
			<data element_type="f32" shape="1, 128, 1, 1" offset="193544" size="512"/>
			<rt_info>
				<attribute name="fused_names" version="0" value="data_add_90369041"/>
			</rt_info>
			<output>
				<port id="0" precision="FP32">
					<dim>1</dim>
					<dim>128</dim>
					<dim>1</dim>
					<dim>1</dim>
				</port>
			</output>
		</layer>
		<layer id="59" name="res_3_block1_conv_dw_batchnorm/variance/Fused_Add_" type="Add" version="opset1">
			<data auto_broadcast="numpy"/>
			<rt_info>
				<attribute name="fused_names" version="0" value="res_3_block1_conv_dw_batchnorm/variance/Fused_Add_"/>
			</rt_info>
			<input>
				<port id="0" precision="FP32">
					<dim>1</dim>
					<dim>128</dim>
					<dim>28</dim>
					<dim>28</dim>
				</port>
				<port id="1" precision="FP32">
					<dim>1</dim>
					<dim>128</dim>
					<dim>1</dim>
					<dim>1</dim>
				</port>
			</input>
			<output>
				<port id="2" precision="FP32" names="res_3_block1_conv_dw_batchnorm:0">
					<dim>1</dim>
					<dim>128</dim>
					<dim>28</dim>
					<dim>28</dim>
				</port>
			</output>
		</layer>
		<layer id="60" name="res_3_block1_conv_dw_relu_gamma" type="Const" version="opset1">
			<data element_type="f32" shape="128" offset="194056" size="512"/>
			<rt_info>
				<attribute name="fused_names" version="0" value="res_3_block1_conv_dw_relu_gamma"/>
			</rt_info>
			<output>
				<port id="0" precision="FP32" names="res_3_block1_conv_dw_relu_gamma:0">
					<dim>128</dim>
				</port>
			</output>
		</layer>
		<layer id="61" name="res_3_block1_conv_dw_relu" type="PReLU" version="opset1">
			<rt_info>
				<attribute name="fused_names" version="0" value="res_3_block1_conv_dw_relu"/>
			</rt_info>
			<input>
				<port id="0" precision="FP32">
					<dim>1</dim>
					<dim>128</dim>
					<dim>28</dim>
					<dim>28</dim>
				</port>
				<port id="1" precision="FP32">
					<dim>128</dim>
				</port>
			</input>
			<output>
				<port id="2" precision="FP32" names="res_3_block1_conv_dw_relu:0">
					<dim>1</dim>
					<dim>128</dim>
					<dim>28</dim>
					<dim>28</dim>
				</port>
			</output>
		</layer>
		<layer id="62" name="res_3_block1_conv_proj_batchnorm/mean/Fused_Mul__copy" type="Const" version="opset1">
			<data element_type="f32" shape="64, 128, 1, 1" offset="194568" size="32768"/>
			<rt_info>
				<attribute name="fused_names" version="0" value="res_3_block1_conv_proj_batchnorm/mean/Fused_Mul__copy"/>
			</rt_info>
			<output>
				<port id="0" precision="FP32" names="res_3_block1_conv_proj_conv2d_weight:0">
					<dim>64</dim>
					<dim>128</dim>
					<dim>1</dim>
					<dim>1</dim>
				</port>
			</output>
		</layer>
		<layer id="63" name="res_3_block1_conv_proj_conv2d" type="Convolution" version="opset1">
			<data strides="1, 1" dilations="1, 1" pads_begin="0, 0" pads_end="0, 0" auto_pad="explicit"/>
			<rt_info>
				<attribute name="fused_names" version="0" value="res_3_block1_conv_proj_conv2d"/>
			</rt_info>
			<input>
				<port id="0" precision="FP32">
					<dim>1</dim>
					<dim>128</dim>
					<dim>28</dim>
					<dim>28</dim>
				</port>
				<port id="1" precision="FP32">
					<dim>64</dim>
					<dim>128</dim>
					<dim>1</dim>
					<dim>1</dim>
				</port>
			</input>
			<output>
				<port id="2" precision="FP32">
					<dim>1</dim>
					<dim>64</dim>
					<dim>28</dim>
					<dim>28</dim>
				</port>
			</output>
		</layer>
		<layer id="64" name="data_add_90449049" type="Const" version="opset1">
			<data element_type="f32" shape="1, 64, 1, 1" offset="227336" size="256"/>
			<rt_info>
				<attribute name="fused_names" version="0" value="data_add_90449049"/>
			</rt_info>
			<output>
				<port id="0" precision="FP32">
					<dim>1</dim>
					<dim>64</dim>
					<dim>1</dim>
					<dim>1</dim>
				</port>
			</output>
		</layer>
		<layer id="65" name="res_3_block1_conv_proj_batchnorm/variance/Fused_Add_" type="Add" version="opset1">
			<data auto_broadcast="numpy"/>
			<rt_info>
				<attribute name="fused_names" version="0" value="res_3_block1_conv_proj_batchnorm/variance/Fused_Add_"/>
			</rt_info>
			<input>
				<port id="0" precision="FP32">
					<dim>1</dim>
					<dim>64</dim>
					<dim>28</dim>
					<dim>28</dim>
				</port>
				<port id="1" precision="FP32">
					<dim>1</dim>
					<dim>64</dim>
					<dim>1</dim>
					<dim>1</dim>
				</port>
			</input>
			<output>
				<port id="2" precision="FP32" names="res_3_block1_conv_proj_batchnorm:0">
					<dim>1</dim>
					<dim>64</dim>
					<dim>28</dim>
					<dim>28</dim>
				</port>
			</output>
		</layer>
		<layer id="66" name="_plus1" type="Add" version="opset1">
			<data auto_broadcast="numpy"/>
			<rt_info>
				<attribute name="fused_names" version="0" value="_plus1"/>
			</rt_info>
			<input>
				<port id="0" precision="FP32">
					<dim>1</dim>
					<dim>64</dim>
					<dim>28</dim>
					<dim>28</dim>
				</port>
				<port id="1" precision="FP32">
					<dim>1</dim>
					<dim>64</dim>
					<dim>28</dim>
					<dim>28</dim>
				</port>
			</input>
			<output>
				<port id="2" precision="FP32" names="_plus1:0">
					<dim>1</dim>
					<dim>64</dim>
					<dim>28</dim>
					<dim>28</dim>
				</port>
			</output>
		</layer>
		<layer id="67" name="res_3_block2_conv_sep_batchnorm/mean/Fused_Mul__copy" type="Const" version="opset1">
			<data element_type="f32" shape="128, 64, 1, 1" offset="227592" size="32768"/>
			<rt_info>
				<attribute name="fused_names" version="0" value="res_3_block2_conv_sep_batchnorm/mean/Fused_Mul__copy"/>
			</rt_info>
			<output>
				<port id="0" precision="FP32" names="res_3_block2_conv_sep_conv2d_weight:0">
					<dim>128</dim>
					<dim>64</dim>
					<dim>1</dim>
					<dim>1</dim>
				</port>
			</output>
		</layer>
		<layer id="68" name="res_3_block2_conv_sep_conv2d" type="Convolution" version="opset1">
			<data strides="1, 1" dilations="1, 1" pads_begin="0, 0" pads_end="0, 0" auto_pad="explicit"/>
			<rt_info>
				<attribute name="fused_names" version="0" value="res_3_block2_conv_sep_conv2d"/>
			</rt_info>
			<input>
				<port id="0" precision="FP32">
					<dim>1</dim>
					<dim>64</dim>
					<dim>28</dim>
					<dim>28</dim>
				</port>
				<port id="1" precision="FP32">
					<dim>128</dim>
					<dim>64</dim>
					<dim>1</dim>
					<dim>1</dim>
				</port>
			</input>
			<output>
				<port id="2" precision="FP32">
					<dim>1</dim>
					<dim>128</dim>
					<dim>28</dim>
					<dim>28</dim>
				</port>
			</output>
		</layer>
		<layer id="69" name="data_add_90529057" type="Const" version="opset1">
			<data element_type="f32" shape="1, 128, 1, 1" offset="260360" size="512"/>
			<rt_info>
				<attribute name="fused_names" version="0" value="data_add_90529057"/>
			</rt_info>
			<output>
				<port id="0" precision="FP32">
					<dim>1</dim>
					<dim>128</dim>
					<dim>1</dim>
					<dim>1</dim>
				</port>
			</output>
		</layer>
		<layer id="70" name="res_3_block2_conv_sep_batchnorm/variance/Fused_Add_" type="Add" version="opset1">
			<data auto_broadcast="numpy"/>
			<rt_info>
				<attribute name="fused_names" version="0" value="res_3_block2_conv_sep_batchnorm/variance/Fused_Add_"/>
			</rt_info>
			<input>
				<port id="0" precision="FP32">
					<dim>1</dim>
					<dim>128</dim>
					<dim>28</dim>
					<dim>28</dim>
				</port>
				<port id="1" precision="FP32">
					<dim>1</dim>
					<dim>128</dim>
					<dim>1</dim>
					<dim>1</dim>
				</port>
			</input>
			<output>
				<port id="2" precision="FP32" names="res_3_block2_conv_sep_batchnorm:0">
					<dim>1</dim>
					<dim>128</dim>
					<dim>28</dim>
					<dim>28</dim>
				</port>
			</output>
		</layer>
		<layer id="71" name="res_3_block2_conv_sep_relu_gamma" type="Const" version="opset1">
			<data element_type="f32" shape="128" offset="260872" size="512"/>
			<rt_info>
				<attribute name="fused_names" version="0" value="res_3_block2_conv_sep_relu_gamma"/>
			</rt_info>
			<output>
				<port id="0" precision="FP32" names="res_3_block2_conv_sep_relu_gamma:0">
					<dim>128</dim>
				</port>
			</output>
		</layer>
		<layer id="72" name="res_3_block2_conv_sep_relu" type="PReLU" version="opset1">
			<rt_info>
				<attribute name="fused_names" version="0" value="res_3_block2_conv_sep_relu"/>
			</rt_info>
			<input>
				<port id="0" precision="FP32">
					<dim>1</dim>
					<dim>128</dim>
					<dim>28</dim>
					<dim>28</dim>
				</port>
				<port id="1" precision="FP32">
					<dim>128</dim>
				</port>
			</input>
			<output>
				<port id="2" precision="FP32" names="res_3_block2_conv_sep_relu:0">
					<dim>1</dim>
					<dim>128</dim>
					<dim>28</dim>
					<dim>28</dim>
				</port>
			</output>
		</layer>
		<layer id="73" name="res_3_block2_conv_dw_batchnorm/mean/Fused_Mul__copy" type="Const" version="opset1">
			<data element_type="f32" shape="128, 1, 1, 3, 3" offset="261384" size="4608"/>
			<rt_info>
				<attribute name="fused_names" version="0" value="res_3_block2_conv_dw_batchnorm/mean/Fused_Mul__copy"/>
			</rt_info>
			<output>
				<port id="0" precision="FP32" names="res_3_block2_conv_dw_conv2d_weight:0">
					<dim>128</dim>
					<dim>1</dim>
					<dim>1</dim>
					<dim>3</dim>
					<dim>3</dim>
				</port>
			</output>
		</layer>
		<layer id="74" name="res_3_block2_conv_dw_conv2d" type="GroupConvolution" version="opset1">
			<data strides="1, 1" pads_begin="1, 1" pads_end="1, 1" dilations="1, 1" auto_pad="explicit"/>
			<rt_info>
				<attribute name="fused_names" version="0" value="res_3_block2_conv_dw_conv2d"/>
			</rt_info>
			<input>
				<port id="0" precision="FP32">
					<dim>1</dim>
					<dim>128</dim>
					<dim>28</dim>
					<dim>28</dim>
				</port>
				<port id="1" precision="FP32">
					<dim>128</dim>
					<dim>1</dim>
					<dim>1</dim>
					<dim>3</dim>
					<dim>3</dim>
				</port>
			</input>
			<output>
				<port id="2" precision="FP32">
					<dim>1</dim>
					<dim>128</dim>
					<dim>28</dim>
					<dim>28</dim>
				</port>
			</output>
		</layer>
		<layer id="75" name="data_add_90609065" type="Const" version="opset1">
			<data element_type="f32" shape="1, 128, 1, 1" offset="265992" size="512"/>
			<rt_info>
				<attribute name="fused_names" version="0" value="data_add_90609065"/>
			</rt_info>
			<output>
				<port id="0" precision="FP32">
					<dim>1</dim>
					<dim>128</dim>
					<dim>1</dim>
					<dim>1</dim>
				</port>
			</output>
		</layer>
		<layer id="76" name="res_3_block2_conv_dw_batchnorm/variance/Fused_Add_" type="Add" version="opset1">
			<data auto_broadcast="numpy"/>
			<rt_info>
				<attribute name="fused_names" version="0" value="res_3_block2_conv_dw_batchnorm/variance/Fused_Add_"/>
			</rt_info>
			<input>
				<port id="0" precision="FP32">
					<dim>1</dim>
					<dim>128</dim>
					<dim>28</dim>
					<dim>28</dim>
				</port>
				<port id="1" precision="FP32">
					<dim>1</dim>
					<dim>128</dim>
					<dim>1</dim>
					<dim>1</dim>
				</port>
			</input>
			<output>
				<port id="2" precision="FP32" names="res_3_block2_conv_dw_batchnorm:0">
					<dim>1</dim>
					<dim>128</dim>
					<dim>28</dim>
					<dim>28</dim>
				</port>
			</output>
		</layer>
		<layer id="77" name="res_3_block2_conv_dw_relu_gamma" type="Const" version="opset1">
			<data element_type="f32" shape="128" offset="266504" size="512"/>
			<rt_info>
				<attribute name="fused_names" version="0" value="res_3_block2_conv_dw_relu_gamma"/>
			</rt_info>
			<output>
				<port id="0" precision="FP32" names="res_3_block2_conv_dw_relu_gamma:0">
					<dim>128</dim>
				</port>
			</output>
		</layer>
		<layer id="78" name="res_3_block2_conv_dw_relu" type="PReLU" version="opset1">
			<rt_info>
				<attribute name="fused_names" version="0" value="res_3_block2_conv_dw_relu"/>
			</rt_info>
			<input>
				<port id="0" precision="FP32">
					<dim>1</dim>
					<dim>128</dim>
					<dim>28</dim>
					<dim>28</dim>
				</port>
				<port id="1" precision="FP32">
					<dim>128</dim>
				</port>
			</input>
			<output>
				<port id="2" precision="FP32" names="res_3_block2_conv_dw_relu:0">
					<dim>1</dim>
					<dim>128</dim>
					<dim>28</dim>
					<dim>28</dim>
				</port>
			</output>
		</layer>
		<layer id="79" name="res_3_block2_conv_proj_batchnorm/mean/Fused_Mul__copy" type="Const" version="opset1">
			<data element_type="f32" shape="64, 128, 1, 1" offset="267016" size="32768"/>
			<rt_info>
				<attribute name="fused_names" version="0" value="res_3_block2_conv_proj_batchnorm/mean/Fused_Mul__copy"/>
			</rt_info>
			<output>
				<port id="0" precision="FP32" names="res_3_block2_conv_proj_conv2d_weight:0">
					<dim>64</dim>
					<dim>128</dim>
					<dim>1</dim>
					<dim>1</dim>
				</port>
			</output>
		</layer>
		<layer id="80" name="res_3_block2_conv_proj_conv2d" type="Convolution" version="opset1">
			<data strides="1, 1" dilations="1, 1" pads_begin="0, 0" pads_end="0, 0" auto_pad="explicit"/>
			<rt_info>
				<attribute name="fused_names" version="0" value="res_3_block2_conv_proj_conv2d"/>
			</rt_info>
			<input>
				<port id="0" precision="FP32">
					<dim>1</dim>
					<dim>128</dim>
					<dim>28</dim>
					<dim>28</dim>
				</port>
				<port id="1" precision="FP32">
					<dim>64</dim>
					<dim>128</dim>
					<dim>1</dim>
					<dim>1</dim>
				</port>
			</input>
			<output>
				<port id="2" precision="FP32">
					<dim>1</dim>
					<dim>64</dim>
					<dim>28</dim>
					<dim>28</dim>
				</port>
			</output>
		</layer>
		<layer id="81" name="data_add_90689073" type="Const" version="opset1">
			<data element_type="f32" shape="1, 64, 1, 1" offset="299784" size="256"/>
			<rt_info>
				<attribute name="fused_names" version="0" value="data_add_90689073"/>
			</rt_info>
			<output>
				<port id="0" precision="FP32">
					<dim>1</dim>
					<dim>64</dim>
					<dim>1</dim>
					<dim>1</dim>
				</port>
			</output>
		</layer>
		<layer id="82" name="res_3_block2_conv_proj_batchnorm/variance/Fused_Add_" type="Add" version="opset1">
			<data auto_broadcast="numpy"/>
			<rt_info>
				<attribute name="fused_names" version="0" value="res_3_block2_conv_proj_batchnorm/variance/Fused_Add_"/>
			</rt_info>
			<input>
				<port id="0" precision="FP32">
					<dim>1</dim>
					<dim>64</dim>
					<dim>28</dim>
					<dim>28</dim>
				</port>
				<port id="1" precision="FP32">
					<dim>1</dim>
					<dim>64</dim>
					<dim>1</dim>
					<dim>1</dim>
				</port>
			</input>
			<output>
				<port id="2" precision="FP32" names="res_3_block2_conv_proj_batchnorm:0">
					<dim>1</dim>
					<dim>64</dim>
					<dim>28</dim>
					<dim>28</dim>
				</port>
			</output>
		</layer>
		<layer id="83" name="_plus2" type="Add" version="opset1">
			<data auto_broadcast="numpy"/>
			<rt_info>
				<attribute name="fused_names" version="0" value="_plus2"/>
			</rt_info>
			<input>
				<port id="0" precision="FP32">
					<dim>1</dim>
					<dim>64</dim>
					<dim>28</dim>
					<dim>28</dim>
				</port>
				<port id="1" precision="FP32">
					<dim>1</dim>
					<dim>64</dim>
					<dim>28</dim>
					<dim>28</dim>
				</port>
			</input>
			<output>
				<port id="2" precision="FP32" names="_plus2:0">
					<dim>1</dim>
					<dim>64</dim>
					<dim>28</dim>
					<dim>28</dim>
				</port>
			</output>
		</layer>
		<layer id="84" name="res_3_block3_conv_sep_batchnorm/mean/Fused_Mul__copy" type="Const" version="opset1">
			<data element_type="f32" shape="128, 64, 1, 1" offset="300040" size="32768"/>
			<rt_info>
				<attribute name="fused_names" version="0" value="res_3_block3_conv_sep_batchnorm/mean/Fused_Mul__copy"/>
			</rt_info>
			<output>
				<port id="0" precision="FP32" names="res_3_block3_conv_sep_conv2d_weight:0">
					<dim>128</dim>
					<dim>64</dim>
					<dim>1</dim>
					<dim>1</dim>
				</port>
			</output>
		</layer>
		<layer id="85" name="res_3_block3_conv_sep_conv2d" type="Convolution" version="opset1">
			<data strides="1, 1" dilations="1, 1" pads_begin="0, 0" pads_end="0, 0" auto_pad="explicit"/>
			<rt_info>
				<attribute name="fused_names" version="0" value="res_3_block3_conv_sep_conv2d"/>
			</rt_info>
			<input>
				<port id="0" precision="FP32">
					<dim>1</dim>
					<dim>64</dim>
					<dim>28</dim>
					<dim>28</dim>
				</port>
				<port id="1" precision="FP32">
					<dim>128</dim>
					<dim>64</dim>
					<dim>1</dim>
					<dim>1</dim>
				</port>
			</input>
			<output>
				<port id="2" precision="FP32">
					<dim>1</dim>
					<dim>128</dim>
					<dim>28</dim>
					<dim>28</dim>
				</port>
			</output>
		</layer>
		<layer id="86" name="data_add_90769081" type="Const" version="opset1">
			<data element_type="f32" shape="1, 128, 1, 1" offset="332808" size="512"/>
			<rt_info>
				<attribute name="fused_names" version="0" value="data_add_90769081"/>
			</rt_info>
			<output>
				<port id="0" precision="FP32">
					<dim>1</dim>
					<dim>128</dim>
					<dim>1</dim>
					<dim>1</dim>
				</port>
			</output>
		</layer>
		<layer id="87" name="res_3_block3_conv_sep_batchnorm/variance/Fused_Add_" type="Add" version="opset1">
			<data auto_broadcast="numpy"/>
			<rt_info>
				<attribute name="fused_names" version="0" value="res_3_block3_conv_sep_batchnorm/variance/Fused_Add_"/>
			</rt_info>
			<input>
				<port id="0" precision="FP32">
					<dim>1</dim>
					<dim>128</dim>
					<dim>28</dim>
					<dim>28</dim>
				</port>
				<port id="1" precision="FP32">
					<dim>1</dim>
					<dim>128</dim>
					<dim>1</dim>
					<dim>1</dim>
				</port>
			</input>
			<output>
				<port id="2" precision="FP32" names="res_3_block3_conv_sep_batchnorm:0">
					<dim>1</dim>
					<dim>128</dim>
					<dim>28</dim>
					<dim>28</dim>
				</port>
			</output>
		</layer>
		<layer id="88" name="res_3_block3_conv_sep_relu_gamma" type="Const" version="opset1">
			<data element_type="f32" shape="128" offset="333320" size="512"/>
			<rt_info>
				<attribute name="fused_names" version="0" value="res_3_block3_conv_sep_relu_gamma"/>
			</rt_info>
			<output>
				<port id="0" precision="FP32" names="res_3_block3_conv_sep_relu_gamma:0">
					<dim>128</dim>
				</port>
			</output>
		</layer>
		<layer id="89" name="res_3_block3_conv_sep_relu" type="PReLU" version="opset1">
			<rt_info>
				<attribute name="fused_names" version="0" value="res_3_block3_conv_sep_relu"/>
			</rt_info>
			<input>
				<port id="0" precision="FP32">
					<dim>1</dim>
					<dim>128</dim>
					<dim>28</dim>
					<dim>28</dim>
				</port>
				<port id="1" precision="FP32">
					<dim>128</dim>
				</port>
			</input>
			<output>
				<port id="2" precision="FP32" names="res_3_block3_conv_sep_relu:0">
					<dim>1</dim>
					<dim>128</dim>
					<dim>28</dim>
					<dim>28</dim>
				</port>
			</output>
		</layer>
		<layer id="90" name="res_3_block3_conv_dw_batchnorm/mean/Fused_Mul__copy" type="Const" version="opset1">
			<data element_type="f32" shape="128, 1, 1, 3, 3" offset="333832" size="4608"/>
			<rt_info>
				<attribute name="fused_names" version="0" value="res_3_block3_conv_dw_batchnorm/mean/Fused_Mul__copy"/>
			</rt_info>
			<output>
				<port id="0" precision="FP32" names="res_3_block3_conv_dw_conv2d_weight:0">
					<dim>128</dim>
					<dim>1</dim>
					<dim>1</dim>
					<dim>3</dim>
					<dim>3</dim>
				</port>
			</output>
		</layer>
		<layer id="91" name="res_3_block3_conv_dw_conv2d" type="GroupConvolution" version="opset1">
			<data strides="1, 1" pads_begin="1, 1" pads_end="1, 1" dilations="1, 1" auto_pad="explicit"/>
			<rt_info>
				<attribute name="fused_names" version="0" value="res_3_block3_conv_dw_conv2d"/>
			</rt_info>
			<input>
				<port id="0" precision="FP32">
					<dim>1</dim>
					<dim>128</dim>
					<dim>28</dim>
					<dim>28</dim>
				</port>
				<port id="1" precision="FP32">
					<dim>128</dim>
					<dim>1</dim>
					<dim>1</dim>
					<dim>3</dim>
					<dim>3</dim>
				</port>
			</input>
			<output>
				<port id="2" precision="FP32">
					<dim>1</dim>
					<dim>128</dim>
					<dim>28</dim>
					<dim>28</dim>
				</port>
			</output>
		</layer>
		<layer id="92" name="data_add_90849089" type="Const" version="opset1">
			<data element_type="f32" shape="1, 128, 1, 1" offset="338440" size="512"/>
			<rt_info>
				<attribute name="fused_names" version="0" value="data_add_90849089"/>
			</rt_info>
			<output>
				<port id="0" precision="FP32">
					<dim>1</dim>
					<dim>128</dim>
					<dim>1</dim>
					<dim>1</dim>
				</port>
			</output>
		</layer>
		<layer id="93" name="res_3_block3_conv_dw_batchnorm/variance/Fused_Add_" type="Add" version="opset1">
			<data auto_broadcast="numpy"/>
			<rt_info>
				<attribute name="fused_names" version="0" value="res_3_block3_conv_dw_batchnorm/variance/Fused_Add_"/>
			</rt_info>
			<input>
				<port id="0" precision="FP32">
					<dim>1</dim>
					<dim>128</dim>
					<dim>28</dim>
					<dim>28</dim>
				</port>
				<port id="1" precision="FP32">
					<dim>1</dim>
					<dim>128</dim>
					<dim>1</dim>
					<dim>1</dim>
				</port>
			</input>
			<output>
				<port id="2" precision="FP32" names="res_3_block3_conv_dw_batchnorm:0">
					<dim>1</dim>
					<dim>128</dim>
					<dim>28</dim>
					<dim>28</dim>
				</port>
			</output>
		</layer>
		<layer id="94" name="res_3_block3_conv_dw_relu_gamma" type="Const" version="opset1">
			<data element_type="f32" shape="128" offset="338952" size="512"/>
			<rt_info>
				<attribute name="fused_names" version="0" value="res_3_block3_conv_dw_relu_gamma"/>
			</rt_info>
			<output>
				<port id="0" precision="FP32" names="res_3_block3_conv_dw_relu_gamma:0">
					<dim>128</dim>
				</port>
			</output>
		</layer>
		<layer id="95" name="res_3_block3_conv_dw_relu" type="PReLU" version="opset1">
			<rt_info>
				<attribute name="fused_names" version="0" value="res_3_block3_conv_dw_relu"/>
			</rt_info>
			<input>
				<port id="0" precision="FP32">
					<dim>1</dim>
					<dim>128</dim>
					<dim>28</dim>
					<dim>28</dim>
				</port>
				<port id="1" precision="FP32">
					<dim>128</dim>
				</port>
			</input>
			<output>
				<port id="2" precision="FP32" names="res_3_block3_conv_dw_relu:0">
					<dim>1</dim>
					<dim>128</dim>
					<dim>28</dim>
					<dim>28</dim>
				</port>
			</output>
		</layer>
		<layer id="96" name="res_3_block3_conv_proj_batchnorm/mean/Fused_Mul__copy" type="Const" version="opset1">
			<data element_type="f32" shape="64, 128, 1, 1" offset="339464" size="32768"/>
			<rt_info>
				<attribute name="fused_names" version="0" value="res_3_block3_conv_proj_batchnorm/mean/Fused_Mul__copy"/>
			</rt_info>
			<output>
				<port id="0" precision="FP32" names="res_3_block3_conv_proj_conv2d_weight:0">
					<dim>64</dim>
					<dim>128</dim>
					<dim>1</dim>
					<dim>1</dim>
				</port>
			</output>
		</layer>
		<layer id="97" name="res_3_block3_conv_proj_conv2d" type="Convolution" version="opset1">
			<data strides="1, 1" dilations="1, 1" pads_begin="0, 0" pads_end="0, 0" auto_pad="explicit"/>
			<rt_info>
				<attribute name="fused_names" version="0" value="res_3_block3_conv_proj_conv2d"/>
			</rt_info>
			<input>
				<port id="0" precision="FP32">
					<dim>1</dim>
					<dim>128</dim>
					<dim>28</dim>
					<dim>28</dim>
				</port>
				<port id="1" precision="FP32">
					<dim>64</dim>
					<dim>128</dim>
					<dim>1</dim>
					<dim>1</dim>
				</port>
			</input>
			<output>
				<port id="2" precision="FP32">
					<dim>1</dim>
					<dim>64</dim>
					<dim>28</dim>
					<dim>28</dim>
				</port>
			</output>
		</layer>
		<layer id="98" name="data_add_90929097" type="Const" version="opset1">
			<data element_type="f32" shape="1, 64, 1, 1" offset="372232" size="256"/>
			<rt_info>
				<attribute name="fused_names" version="0" value="data_add_90929097"/>
			</rt_info>
			<output>
				<port id="0" precision="FP32">
					<dim>1</dim>
					<dim>64</dim>
					<dim>1</dim>
					<dim>1</dim>
				</port>
			</output>
		</layer>
		<layer id="99" name="res_3_block3_conv_proj_batchnorm/variance/Fused_Add_" type="Add" version="opset1">
			<data auto_broadcast="numpy"/>
			<rt_info>
				<attribute name="fused_names" version="0" value="res_3_block3_conv_proj_batchnorm/variance/Fused_Add_"/>
			</rt_info>
			<input>
				<port id="0" precision="FP32">
					<dim>1</dim>
					<dim>64</dim>
					<dim>28</dim>
					<dim>28</dim>
				</port>
				<port id="1" precision="FP32">
					<dim>1</dim>
					<dim>64</dim>
					<dim>1</dim>
					<dim>1</dim>
				</port>
			</input>
			<output>
				<port id="2" precision="FP32" names="res_3_block3_conv_proj_batchnorm:0">
					<dim>1</dim>
					<dim>64</dim>
					<dim>28</dim>
					<dim>28</dim>
				</port>
			</output>
		</layer>
		<layer id="100" name="_plus3" type="Add" version="opset1">
			<data auto_broadcast="numpy"/>
			<rt_info>
				<attribute name="fused_names" version="0" value="_plus3"/>
			</rt_info>
			<input>
				<port id="0" precision="FP32">
					<dim>1</dim>
					<dim>64</dim>
					<dim>28</dim>
					<dim>28</dim>
				</port>
				<port id="1" precision="FP32">
					<dim>1</dim>
					<dim>64</dim>
					<dim>28</dim>
					<dim>28</dim>
				</port>
			</input>
			<output>
				<port id="2" precision="FP32" names="_plus3:0">
					<dim>1</dim>
					<dim>64</dim>
					<dim>28</dim>
					<dim>28</dim>
				</port>
			</output>
		</layer>
		<layer id="101" name="dconv_34_conv_sep_batchnorm/mean/Fused_Mul__copy" type="Const" version="opset1">
			<data element_type="f32" shape="256, 64, 1, 1" offset="372488" size="65536"/>
			<rt_info>
				<attribute name="fused_names" version="0" value="dconv_34_conv_sep_batchnorm/mean/Fused_Mul__copy"/>
			</rt_info>
			<output>
				<port id="0" precision="FP32" names="dconv_34_conv_sep_conv2d_weight:0">
					<dim>256</dim>
					<dim>64</dim>
					<dim>1</dim>
					<dim>1</dim>
				</port>
			</output>
		</layer>
		<layer id="102" name="dconv_34_conv_sep_conv2d" type="Convolution" version="opset1">
			<data strides="1, 1" dilations="1, 1" pads_begin="0, 0" pads_end="0, 0" auto_pad="explicit"/>
			<rt_info>
				<attribute name="fused_names" version="0" value="dconv_34_conv_sep_conv2d"/>
			</rt_info>
			<input>
				<port id="0" precision="FP32">
					<dim>1</dim>
					<dim>64</dim>
					<dim>28</dim>
					<dim>28</dim>
				</port>
				<port id="1" precision="FP32">
					<dim>256</dim>
					<dim>64</dim>
					<dim>1</dim>
					<dim>1</dim>
				</port>
			</input>
			<output>
				<port id="2" precision="FP32">
					<dim>1</dim>
					<dim>256</dim>
					<dim>28</dim>
					<dim>28</dim>
				</port>
			</output>
		</layer>
		<layer id="103" name="data_add_91009105" type="Const" version="opset1">
			<data element_type="f32" shape="1, 256, 1, 1" offset="438024" size="1024"/>
			<rt_info>
				<attribute name="fused_names" version="0" value="data_add_91009105"/>
			</rt_info>
			<output>
				<port id="0" precision="FP32">
					<dim>1</dim>
					<dim>256</dim>
					<dim>1</dim>
					<dim>1</dim>
				</port>
			</output>
		</layer>
		<layer id="104" name="dconv_34_conv_sep_batchnorm/variance/Fused_Add_" type="Add" version="opset1">
			<data auto_broadcast="numpy"/>
			<rt_info>
				<attribute name="fused_names" version="0" value="dconv_34_conv_sep_batchnorm/variance/Fused_Add_"/>
			</rt_info>
			<input>
				<port id="0" precision="FP32">
					<dim>1</dim>
					<dim>256</dim>
					<dim>28</dim>
					<dim>28</dim>
				</port>
				<port id="1" precision="FP32">
					<dim>1</dim>
					<dim>256</dim>
					<dim>1</dim>
					<dim>1</dim>
				</port>
			</input>
			<output>
				<port id="2" precision="FP32" names="dconv_34_conv_sep_batchnorm:0">
					<dim>1</dim>
					<dim>256</dim>
					<dim>28</dim>
					<dim>28</dim>
				</port>
			</output>
		</layer>
		<layer id="105" name="dconv_34_conv_sep_relu_gamma" type="Const" version="opset1">
			<data element_type="f32" shape="256" offset="439048" size="1024"/>
			<rt_info>
				<attribute name="fused_names" version="0" value="dconv_34_conv_sep_relu_gamma"/>
			</rt_info>
			<output>
				<port id="0" precision="FP32" names="dconv_34_conv_sep_relu_gamma:0">
					<dim>256</dim>
				</port>
			</output>
		</layer>
		<layer id="106" name="dconv_34_conv_sep_relu" type="PReLU" version="opset1">
			<rt_info>
				<attribute name="fused_names" version="0" value="dconv_34_conv_sep_relu"/>
			</rt_info>
			<input>
				<port id="0" precision="FP32">
					<dim>1</dim>
					<dim>256</dim>
					<dim>28</dim>
					<dim>28</dim>
				</port>
				<port id="1" precision="FP32">
					<dim>256</dim>
				</port>
			</input>
			<output>
				<port id="2" precision="FP32" names="dconv_34_conv_sep_relu:0">
					<dim>1</dim>
					<dim>256</dim>
					<dim>28</dim>
					<dim>28</dim>
				</port>
			</output>
		</layer>
		<layer id="107" name="dconv_34_conv_dw_batchnorm/mean/Fused_Mul__copy" type="Const" version="opset1">
			<data element_type="f32" shape="256, 1, 1, 3, 3" offset="440072" size="9216"/>
			<rt_info>
				<attribute name="fused_names" version="0" value="dconv_34_conv_dw_batchnorm/mean/Fused_Mul__copy"/>
			</rt_info>
			<output>
				<port id="0" precision="FP32" names="dconv_34_conv_dw_conv2d_weight:0">
					<dim>256</dim>
					<dim>1</dim>
					<dim>1</dim>
					<dim>3</dim>
					<dim>3</dim>
				</port>
			</output>
		</layer>
		<layer id="108" name="dconv_34_conv_dw_conv2d" type="GroupConvolution" version="opset1">
			<data strides="2, 2" pads_begin="1, 1" pads_end="1, 1" dilations="1, 1" auto_pad="explicit"/>
			<rt_info>
				<attribute name="fused_names" version="0" value="dconv_34_conv_dw_conv2d"/>
			</rt_info>
			<input>
				<port id="0" precision="FP32">
					<dim>1</dim>
					<dim>256</dim>
					<dim>28</dim>
					<dim>28</dim>
				</port>
				<port id="1" precision="FP32">
					<dim>256</dim>
					<dim>1</dim>
					<dim>1</dim>
					<dim>3</dim>
					<dim>3</dim>
				</port>
			</input>
			<output>
				<port id="2" precision="FP32">
					<dim>1</dim>
					<dim>256</dim>
					<dim>14</dim>
					<dim>14</dim>
				</port>
			</output>
		</layer>
		<layer id="109" name="data_add_91089113" type="Const" version="opset1">
			<data element_type="f32" shape="1, 256, 1, 1" offset="449288" size="1024"/>
			<rt_info>
				<attribute name="fused_names" version="0" value="data_add_91089113"/>
			</rt_info>
			<output>
				<port id="0" precision="FP32">
					<dim>1</dim>
					<dim>256</dim>
					<dim>1</dim>
					<dim>1</dim>
				</port>
			</output>
		</layer>
		<layer id="110" name="dconv_34_conv_dw_batchnorm/variance/Fused_Add_" type="Add" version="opset1">
			<data auto_broadcast="numpy"/>
			<rt_info>
				<attribute name="fused_names" version="0" value="dconv_34_conv_dw_batchnorm/variance/Fused_Add_"/>
			</rt_info>
			<input>
				<port id="0" precision="FP32">
					<dim>1</dim>
					<dim>256</dim>
					<dim>14</dim>
					<dim>14</dim>
				</port>
				<port id="1" precision="FP32">
					<dim>1</dim>
					<dim>256</dim>
					<dim>1</dim>
					<dim>1</dim>
				</port>
			</input>
			<output>
				<port id="2" precision="FP32" names="dconv_34_conv_dw_batchnorm:0">
					<dim>1</dim>
					<dim>256</dim>
					<dim>14</dim>
					<dim>14</dim>
				</port>
			</output>
		</layer>
		<layer id="111" name="dconv_34_conv_dw_relu_gamma" type="Const" version="opset1">
			<data element_type="f32" shape="256" offset="450312" size="1024"/>
			<rt_info>
				<attribute name="fused_names" version="0" value="dconv_34_conv_dw_relu_gamma"/>
			</rt_info>
			<output>
				<port id="0" precision="FP32" names="dconv_34_conv_dw_relu_gamma:0">
					<dim>256</dim>
				</port>
			</output>
		</layer>
		<layer id="112" name="dconv_34_conv_dw_relu" type="PReLU" version="opset1">
			<rt_info>
				<attribute name="fused_names" version="0" value="dconv_34_conv_dw_relu"/>
			</rt_info>
			<input>
				<port id="0" precision="FP32">
					<dim>1</dim>
					<dim>256</dim>
					<dim>14</dim>
					<dim>14</dim>
				</port>
				<port id="1" precision="FP32">
					<dim>256</dim>
				</port>
			</input>
			<output>
				<port id="2" precision="FP32" names="dconv_34_conv_dw_relu:0">
					<dim>1</dim>
					<dim>256</dim>
					<dim>14</dim>
					<dim>14</dim>
				</port>
			</output>
		</layer>
		<layer id="113" name="dconv_34_conv_proj_batchnorm/mean/Fused_Mul__copy" type="Const" version="opset1">
			<data element_type="f32" shape="128, 256, 1, 1" offset="451336" size="131072"/>
			<rt_info>
				<attribute name="fused_names" version="0" value="dconv_34_conv_proj_batchnorm/mean/Fused_Mul__copy"/>
			</rt_info>
			<output>
				<port id="0" precision="FP32" names="dconv_34_conv_proj_conv2d_weight:0">
					<dim>128</dim>
					<dim>256</dim>
					<dim>1</dim>
					<dim>1</dim>
				</port>
			</output>
		</layer>
		<layer id="114" name="dconv_34_conv_proj_conv2d" type="Convolution" version="opset1">
			<data strides="1, 1" dilations="1, 1" pads_begin="0, 0" pads_end="0, 0" auto_pad="explicit"/>
			<rt_info>
				<attribute name="fused_names" version="0" value="dconv_34_conv_proj_conv2d"/>
			</rt_info>
			<input>
				<port id="0" precision="FP32">
					<dim>1</dim>
					<dim>256</dim>
					<dim>14</dim>
					<dim>14</dim>
				</port>
				<port id="1" precision="FP32">
					<dim>128</dim>
					<dim>256</dim>
					<dim>1</dim>
					<dim>1</dim>
				</port>
			</input>
			<output>
				<port id="2" precision="FP32">
					<dim>1</dim>
					<dim>128</dim>
					<dim>14</dim>
					<dim>14</dim>
				</port>
			</output>
		</layer>
		<layer id="115" name="data_add_91169121" type="Const" version="opset1">
			<data element_type="f32" shape="1, 128, 1, 1" offset="582408" size="512"/>
			<rt_info>
				<attribute name="fused_names" version="0" value="data_add_91169121"/>
			</rt_info>
			<output>
				<port id="0" precision="FP32">
					<dim>1</dim>
					<dim>128</dim>
					<dim>1</dim>
					<dim>1</dim>
				</port>
			</output>
		</layer>
		<layer id="116" name="dconv_34_conv_proj_batchnorm/variance/Fused_Add_" type="Add" version="opset1">
			<data auto_broadcast="numpy"/>
			<rt_info>
				<attribute name="fused_names" version="0" value="dconv_34_conv_proj_batchnorm/variance/Fused_Add_"/>
			</rt_info>
			<input>
				<port id="0" precision="FP32">
					<dim>1</dim>
					<dim>128</dim>
					<dim>14</dim>
					<dim>14</dim>
				</port>
				<port id="1" precision="FP32">
					<dim>1</dim>
					<dim>128</dim>
					<dim>1</dim>
					<dim>1</dim>
				</port>
			</input>
			<output>
				<port id="2" precision="FP32" names="dconv_34_conv_proj_batchnorm:0">
					<dim>1</dim>
					<dim>128</dim>
					<dim>14</dim>
					<dim>14</dim>
				</port>
			</output>
		</layer>
		<layer id="117" name="res_4_block0_conv_sep_batchnorm/mean/Fused_Mul__copy" type="Const" version="opset1">
			<data element_type="f32" shape="256, 128, 1, 1" offset="582920" size="131072"/>
			<rt_info>
				<attribute name="fused_names" version="0" value="res_4_block0_conv_sep_batchnorm/mean/Fused_Mul__copy"/>
			</rt_info>
			<output>
				<port id="0" precision="FP32" names="res_4_block0_conv_sep_conv2d_weight:0">
					<dim>256</dim>
					<dim>128</dim>
					<dim>1</dim>
					<dim>1</dim>
				</port>
			</output>
		</layer>
		<layer id="118" name="res_4_block0_conv_sep_conv2d" type="Convolution" version="opset1">
			<data strides="1, 1" dilations="1, 1" pads_begin="0, 0" pads_end="0, 0" auto_pad="explicit"/>
			<rt_info>
				<attribute name="fused_names" version="0" value="res_4_block0_conv_sep_conv2d"/>
			</rt_info>
			<input>
				<port id="0" precision="FP32">
					<dim>1</dim>
					<dim>128</dim>
					<dim>14</dim>
					<dim>14</dim>
				</port>
				<port id="1" precision="FP32">
					<dim>256</dim>
					<dim>128</dim>
					<dim>1</dim>
					<dim>1</dim>
				</port>
			</input>
			<output>
				<port id="2" precision="FP32">
					<dim>1</dim>
					<dim>256</dim>
					<dim>14</dim>
					<dim>14</dim>
				</port>
			</output>
		</layer>
		<layer id="119" name="data_add_91249129" type="Const" version="opset1">
			<data element_type="f32" shape="1, 256, 1, 1" offset="713992" size="1024"/>
			<rt_info>
				<attribute name="fused_names" version="0" value="data_add_91249129"/>
			</rt_info>
			<output>
				<port id="0" precision="FP32">
					<dim>1</dim>
					<dim>256</dim>
					<dim>1</dim>
					<dim>1</dim>
				</port>
			</output>
		</layer>
		<layer id="120" name="res_4_block0_conv_sep_batchnorm/variance/Fused_Add_" type="Add" version="opset1">
			<data auto_broadcast="numpy"/>
			<rt_info>
				<attribute name="fused_names" version="0" value="res_4_block0_conv_sep_batchnorm/variance/Fused_Add_"/>
			</rt_info>
			<input>
				<port id="0" precision="FP32">
					<dim>1</dim>
					<dim>256</dim>
					<dim>14</dim>
					<dim>14</dim>
				</port>
				<port id="1" precision="FP32">
					<dim>1</dim>
					<dim>256</dim>
					<dim>1</dim>
					<dim>1</dim>
				</port>
			</input>
			<output>
				<port id="2" precision="FP32" names="res_4_block0_conv_sep_batchnorm:0">
					<dim>1</dim>
					<dim>256</dim>
					<dim>14</dim>
					<dim>14</dim>
				</port>
			</output>
		</layer>
		<layer id="121" name="res_4_block0_conv_sep_relu_gamma" type="Const" version="opset1">
			<data element_type="f32" shape="256" offset="715016" size="1024"/>
			<rt_info>
				<attribute name="fused_names" version="0" value="res_4_block0_conv_sep_relu_gamma"/>
			</rt_info>
			<output>
				<port id="0" precision="FP32" names="res_4_block0_conv_sep_relu_gamma:0">
					<dim>256</dim>
				</port>
			</output>
		</layer>
		<layer id="122" name="res_4_block0_conv_sep_relu" type="PReLU" version="opset1">
			<rt_info>
				<attribute name="fused_names" version="0" value="res_4_block0_conv_sep_relu"/>
			</rt_info>
			<input>
				<port id="0" precision="FP32">
					<dim>1</dim>
					<dim>256</dim>
					<dim>14</dim>
					<dim>14</dim>
				</port>
				<port id="1" precision="FP32">
					<dim>256</dim>
				</port>
			</input>
			<output>
				<port id="2" precision="FP32" names="res_4_block0_conv_sep_relu:0">
					<dim>1</dim>
					<dim>256</dim>
					<dim>14</dim>
					<dim>14</dim>
				</port>
			</output>
		</layer>
		<layer id="123" name="res_4_block0_conv_dw_batchnorm/mean/Fused_Mul__copy" type="Const" version="opset1">
			<data element_type="f32" shape="256, 1, 1, 3, 3" offset="716040" size="9216"/>
			<rt_info>
				<attribute name="fused_names" version="0" value="res_4_block0_conv_dw_batchnorm/mean/Fused_Mul__copy"/>
			</rt_info>
			<output>
				<port id="0" precision="FP32" names="res_4_block0_conv_dw_conv2d_weight:0">
					<dim>256</dim>
					<dim>1</dim>
					<dim>1</dim>
					<dim>3</dim>
					<dim>3</dim>
				</port>
			</output>
		</layer>
		<layer id="124" name="res_4_block0_conv_dw_conv2d" type="GroupConvolution" version="opset1">
			<data strides="1, 1" pads_begin="1, 1" pads_end="1, 1" dilations="1, 1" auto_pad="explicit"/>
			<rt_info>
				<attribute name="fused_names" version="0" value="res_4_block0_conv_dw_conv2d"/>
			</rt_info>
			<input>
				<port id="0" precision="FP32">
					<dim>1</dim>
					<dim>256</dim>
					<dim>14</dim>
					<dim>14</dim>
				</port>
				<port id="1" precision="FP32">
					<dim>256</dim>
					<dim>1</dim>
					<dim>1</dim>
					<dim>3</dim>
					<dim>3</dim>
				</port>
			</input>
			<output>
				<port id="2" precision="FP32">
					<dim>1</dim>
					<dim>256</dim>
					<dim>14</dim>
					<dim>14</dim>
				</port>
			</output>
		</layer>
		<layer id="125" name="data_add_91329137" type="Const" version="opset1">
			<data element_type="f32" shape="1, 256, 1, 1" offset="725256" size="1024"/>
			<rt_info>
				<attribute name="fused_names" version="0" value="data_add_91329137"/>
			</rt_info>
			<output>
				<port id="0" precision="FP32">
					<dim>1</dim>
					<dim>256</dim>
					<dim>1</dim>
					<dim>1</dim>
				</port>
			</output>
		</layer>
		<layer id="126" name="res_4_block0_conv_dw_batchnorm/variance/Fused_Add_" type="Add" version="opset1">
			<data auto_broadcast="numpy"/>
			<rt_info>
				<attribute name="fused_names" version="0" value="res_4_block0_conv_dw_batchnorm/variance/Fused_Add_"/>
			</rt_info>
			<input>
				<port id="0" precision="FP32">
					<dim>1</dim>
					<dim>256</dim>
					<dim>14</dim>
					<dim>14</dim>
				</port>
				<port id="1" precision="FP32">
					<dim>1</dim>
					<dim>256</dim>
					<dim>1</dim>
					<dim>1</dim>
				</port>
			</input>
			<output>
				<port id="2" precision="FP32" names="res_4_block0_conv_dw_batchnorm:0">
					<dim>1</dim>
					<dim>256</dim>
					<dim>14</dim>
					<dim>14</dim>
				</port>
			</output>
		</layer>
		<layer id="127" name="res_4_block0_conv_dw_relu_gamma" type="Const" version="opset1">
			<data element_type="f32" shape="256" offset="726280" size="1024"/>
			<rt_info>
				<attribute name="fused_names" version="0" value="res_4_block0_conv_dw_relu_gamma"/>
			</rt_info>
			<output>
				<port id="0" precision="FP32" names="res_4_block0_conv_dw_relu_gamma:0">
					<dim>256</dim>
				</port>
			</output>
		</layer>
		<layer id="128" name="res_4_block0_conv_dw_relu" type="PReLU" version="opset1">
			<rt_info>
				<attribute name="fused_names" version="0" value="res_4_block0_conv_dw_relu"/>
			</rt_info>
			<input>
				<port id="0" precision="FP32">
					<dim>1</dim>
					<dim>256</dim>
					<dim>14</dim>
					<dim>14</dim>
				</port>
				<port id="1" precision="FP32">
					<dim>256</dim>
				</port>
			</input>
			<output>
				<port id="2" precision="FP32" names="res_4_block0_conv_dw_relu:0">
					<dim>1</dim>
					<dim>256</dim>
					<dim>14</dim>
					<dim>14</dim>
				</port>
			</output>
		</layer>
		<layer id="129" name="res_4_block0_conv_proj_batchnorm/mean/Fused_Mul__copy" type="Const" version="opset1">
			<data element_type="f32" shape="128, 256, 1, 1" offset="727304" size="131072"/>
			<rt_info>
				<attribute name="fused_names" version="0" value="res_4_block0_conv_proj_batchnorm/mean/Fused_Mul__copy"/>
			</rt_info>
			<output>
				<port id="0" precision="FP32" names="res_4_block0_conv_proj_conv2d_weight:0">
					<dim>128</dim>
					<dim>256</dim>
					<dim>1</dim>
					<dim>1</dim>
				</port>
			</output>
		</layer>
		<layer id="130" name="res_4_block0_conv_proj_conv2d" type="Convolution" version="opset1">
			<data strides="1, 1" dilations="1, 1" pads_begin="0, 0" pads_end="0, 0" auto_pad="explicit"/>
			<rt_info>
				<attribute name="fused_names" version="0" value="res_4_block0_conv_proj_conv2d"/>
			</rt_info>
			<input>
				<port id="0" precision="FP32">
					<dim>1</dim>
					<dim>256</dim>
					<dim>14</dim>
					<dim>14</dim>
				</port>
				<port id="1" precision="FP32">
					<dim>128</dim>
					<dim>256</dim>
					<dim>1</dim>
					<dim>1</dim>
				</port>
			</input>
			<output>
				<port id="2" precision="FP32">
					<dim>1</dim>
					<dim>128</dim>
					<dim>14</dim>
					<dim>14</dim>
				</port>
			</output>
		</layer>
		<layer id="131" name="data_add_91409145" type="Const" version="opset1">
			<data element_type="f32" shape="1, 128, 1, 1" offset="858376" size="512"/>
			<rt_info>
				<attribute name="fused_names" version="0" value="data_add_91409145"/>
			</rt_info>
			<output>
				<port id="0" precision="FP32">
					<dim>1</dim>
					<dim>128</dim>
					<dim>1</dim>
					<dim>1</dim>
				</port>
			</output>
		</layer>
		<layer id="132" name="res_4_block0_conv_proj_batchnorm/variance/Fused_Add_" type="Add" version="opset1">
			<data auto_broadcast="numpy"/>
			<rt_info>
				<attribute name="fused_names" version="0" value="res_4_block0_conv_proj_batchnorm/variance/Fused_Add_"/>
			</rt_info>
			<input>
				<port id="0" precision="FP32">
					<dim>1</dim>
					<dim>128</dim>
					<dim>14</dim>
					<dim>14</dim>
				</port>
				<port id="1" precision="FP32">
					<dim>1</dim>
					<dim>128</dim>
					<dim>1</dim>
					<dim>1</dim>
				</port>
			</input>
			<output>
				<port id="2" precision="FP32" names="res_4_block0_conv_proj_batchnorm:0">
					<dim>1</dim>
					<dim>128</dim>
					<dim>14</dim>
					<dim>14</dim>
				</port>
			</output>
		</layer>
		<layer id="133" name="_plus4" type="Add" version="opset1">
			<data auto_broadcast="numpy"/>
			<rt_info>
				<attribute name="fused_names" version="0" value="_plus4"/>
			</rt_info>
			<input>
				<port id="0" precision="FP32">
					<dim>1</dim>
					<dim>128</dim>
					<dim>14</dim>
					<dim>14</dim>
				</port>
				<port id="1" precision="FP32">
					<dim>1</dim>
					<dim>128</dim>
					<dim>14</dim>
					<dim>14</dim>
				</port>
			</input>
			<output>
				<port id="2" precision="FP32" names="_plus4:0">
					<dim>1</dim>
					<dim>128</dim>
					<dim>14</dim>
					<dim>14</dim>
				</port>
			</output>
		</layer>
		<layer id="134" name="res_4_block1_conv_sep_batchnorm/mean/Fused_Mul__copy" type="Const" version="opset1">
			<data element_type="f32" shape="256, 128, 1, 1" offset="858888" size="131072"/>
			<rt_info>
				<attribute name="fused_names" version="0" value="res_4_block1_conv_sep_batchnorm/mean/Fused_Mul__copy"/>
			</rt_info>
			<output>
				<port id="0" precision="FP32" names="res_4_block1_conv_sep_conv2d_weight:0">
					<dim>256</dim>
					<dim>128</dim>
					<dim>1</dim>
					<dim>1</dim>
				</port>
			</output>
		</layer>
		<layer id="135" name="res_4_block1_conv_sep_conv2d" type="Convolution" version="opset1">
			<data strides="1, 1" dilations="1, 1" pads_begin="0, 0" pads_end="0, 0" auto_pad="explicit"/>
			<rt_info>
				<attribute name="fused_names" version="0" value="res_4_block1_conv_sep_conv2d"/>
			</rt_info>
			<input>
				<port id="0" precision="FP32">
					<dim>1</dim>
					<dim>128</dim>
					<dim>14</dim>
					<dim>14</dim>
				</port>
				<port id="1" precision="FP32">
					<dim>256</dim>
					<dim>128</dim>
					<dim>1</dim>
					<dim>1</dim>
				</port>
			</input>
			<output>
				<port id="2" precision="FP32">
					<dim>1</dim>
					<dim>256</dim>
					<dim>14</dim>
					<dim>14</dim>
				</port>
			</output>
		</layer>
		<layer id="136" name="data_add_91489153" type="Const" version="opset1">
			<data element_type="f32" shape="1, 256, 1, 1" offset="989960" size="1024"/>
			<rt_info>
				<attribute name="fused_names" version="0" value="data_add_91489153"/>
			</rt_info>
			<output>
				<port id="0" precision="FP32">
					<dim>1</dim>
					<dim>256</dim>
					<dim>1</dim>
					<dim>1</dim>
				</port>
			</output>
		</layer>
		<layer id="137" name="res_4_block1_conv_sep_batchnorm/variance/Fused_Add_" type="Add" version="opset1">
			<data auto_broadcast="numpy"/>
			<rt_info>
				<attribute name="fused_names" version="0" value="res_4_block1_conv_sep_batchnorm/variance/Fused_Add_"/>
			</rt_info>
			<input>
				<port id="0" precision="FP32">
					<dim>1</dim>
					<dim>256</dim>
					<dim>14</dim>
					<dim>14</dim>
				</port>
				<port id="1" precision="FP32">
					<dim>1</dim>
					<dim>256</dim>
					<dim>1</dim>
					<dim>1</dim>
				</port>
			</input>
			<output>
				<port id="2" precision="FP32" names="res_4_block1_conv_sep_batchnorm:0">
					<dim>1</dim>
					<dim>256</dim>
					<dim>14</dim>
					<dim>14</dim>
				</port>
			</output>
		</layer>
		<layer id="138" name="res_4_block1_conv_sep_relu_gamma" type="Const" version="opset1">
			<data element_type="f32" shape="256" offset="990984" size="1024"/>
			<rt_info>
				<attribute name="fused_names" version="0" value="res_4_block1_conv_sep_relu_gamma"/>
			</rt_info>
			<output>
				<port id="0" precision="FP32" names="res_4_block1_conv_sep_relu_gamma:0">
					<dim>256</dim>
				</port>
			</output>
		</layer>
		<layer id="139" name="res_4_block1_conv_sep_relu" type="PReLU" version="opset1">
			<rt_info>
				<attribute name="fused_names" version="0" value="res_4_block1_conv_sep_relu"/>
			</rt_info>
			<input>
				<port id="0" precision="FP32">
					<dim>1</dim>
					<dim>256</dim>
					<dim>14</dim>
					<dim>14</dim>
				</port>
				<port id="1" precision="FP32">
					<dim>256</dim>
				</port>
			</input>
			<output>
				<port id="2" precision="FP32" names="res_4_block1_conv_sep_relu:0">
					<dim>1</dim>
					<dim>256</dim>
					<dim>14</dim>
					<dim>14</dim>
				</port>
			</output>
		</layer>
		<layer id="140" name="res_4_block1_conv_dw_batchnorm/mean/Fused_Mul__copy" type="Const" version="opset1">
			<data element_type="f32" shape="256, 1, 1, 3, 3" offset="992008" size="9216"/>
			<rt_info>
				<attribute name="fused_names" version="0" value="res_4_block1_conv_dw_batchnorm/mean/Fused_Mul__copy"/>
			</rt_info>
			<output>
				<port id="0" precision="FP32" names="res_4_block1_conv_dw_conv2d_weight:0">
					<dim>256</dim>
					<dim>1</dim>
					<dim>1</dim>
					<dim>3</dim>
					<dim>3</dim>
				</port>
			</output>
		</layer>
		<layer id="141" name="res_4_block1_conv_dw_conv2d" type="GroupConvolution" version="opset1">
			<data strides="1, 1" pads_begin="1, 1" pads_end="1, 1" dilations="1, 1" auto_pad="explicit"/>
			<rt_info>
				<attribute name="fused_names" version="0" value="res_4_block1_conv_dw_conv2d"/>
			</rt_info>
			<input>
				<port id="0" precision="FP32">
					<dim>1</dim>
					<dim>256</dim>
					<dim>14</dim>
					<dim>14</dim>
				</port>
				<port id="1" precision="FP32">
					<dim>256</dim>
					<dim>1</dim>
					<dim>1</dim>
					<dim>3</dim>
					<dim>3</dim>
				</port>
			</input>
			<output>
				<port id="2" precision="FP32">
					<dim>1</dim>
					<dim>256</dim>
					<dim>14</dim>
					<dim>14</dim>
				</port>
			</output>
		</layer>
		<layer id="142" name="data_add_91569161" type="Const" version="opset1">
			<data element_type="f32" shape="1, 256, 1, 1" offset="1001224" size="1024"/>
			<rt_info>
				<attribute name="fused_names" version="0" value="data_add_91569161"/>
			</rt_info>
			<output>
				<port id="0" precision="FP32">
					<dim>1</dim>
					<dim>256</dim>
					<dim>1</dim>
					<dim>1</dim>
				</port>
			</output>
		</layer>
		<layer id="143" name="res_4_block1_conv_dw_batchnorm/variance/Fused_Add_" type="Add" version="opset1">
			<data auto_broadcast="numpy"/>
			<rt_info>
				<attribute name="fused_names" version="0" value="res_4_block1_conv_dw_batchnorm/variance/Fused_Add_"/>
			</rt_info>
			<input>
				<port id="0" precision="FP32">
					<dim>1</dim>
					<dim>256</dim>
					<dim>14</dim>
					<dim>14</dim>
				</port>
				<port id="1" precision="FP32">
					<dim>1</dim>
					<dim>256</dim>
					<dim>1</dim>
					<dim>1</dim>
				</port>
			</input>
			<output>
				<port id="2" precision="FP32" names="res_4_block1_conv_dw_batchnorm:0">
					<dim>1</dim>
					<dim>256</dim>
					<dim>14</dim>
					<dim>14</dim>
				</port>
			</output>
		</layer>
		<layer id="144" name="res_4_block1_conv_dw_relu_gamma" type="Const" version="opset1">
			<data element_type="f32" shape="256" offset="1002248" size="1024"/>
			<rt_info>
				<attribute name="fused_names" version="0" value="res_4_block1_conv_dw_relu_gamma"/>
			</rt_info>
			<output>
				<port id="0" precision="FP32" names="res_4_block1_conv_dw_relu_gamma:0">
					<dim>256</dim>
				</port>
			</output>
		</layer>
		<layer id="145" name="res_4_block1_conv_dw_relu" type="PReLU" version="opset1">
			<rt_info>
				<attribute name="fused_names" version="0" value="res_4_block1_conv_dw_relu"/>
			</rt_info>
			<input>
				<port id="0" precision="FP32">
					<dim>1</dim>
					<dim>256</dim>
					<dim>14</dim>
					<dim>14</dim>
				</port>
				<port id="1" precision="FP32">
					<dim>256</dim>
				</port>
			</input>
			<output>
				<port id="2" precision="FP32" names="res_4_block1_conv_dw_relu:0">
					<dim>1</dim>
					<dim>256</dim>
					<dim>14</dim>
					<dim>14</dim>
				</port>
			</output>
		</layer>
		<layer id="146" name="res_4_block1_conv_proj_batchnorm/mean/Fused_Mul__copy" type="Const" version="opset1">
			<data element_type="f32" shape="128, 256, 1, 1" offset="1003272" size="131072"/>
			<rt_info>
				<attribute name="fused_names" version="0" value="res_4_block1_conv_proj_batchnorm/mean/Fused_Mul__copy"/>
			</rt_info>
			<output>
				<port id="0" precision="FP32" names="res_4_block1_conv_proj_conv2d_weight:0">
					<dim>128</dim>
					<dim>256</dim>
					<dim>1</dim>
					<dim>1</dim>
				</port>
			</output>
		</layer>
		<layer id="147" name="res_4_block1_conv_proj_conv2d" type="Convolution" version="opset1">
			<data strides="1, 1" dilations="1, 1" pads_begin="0, 0" pads_end="0, 0" auto_pad="explicit"/>
			<rt_info>
				<attribute name="fused_names" version="0" value="res_4_block1_conv_proj_conv2d"/>
			</rt_info>
			<input>
				<port id="0" precision="FP32">
					<dim>1</dim>
					<dim>256</dim>
					<dim>14</dim>
					<dim>14</dim>
				</port>
				<port id="1" precision="FP32">
					<dim>128</dim>
					<dim>256</dim>
					<dim>1</dim>
					<dim>1</dim>
				</port>
			</input>
			<output>
				<port id="2" precision="FP32">
					<dim>1</dim>
					<dim>128</dim>
					<dim>14</dim>
					<dim>14</dim>
				</port>
			</output>
		</layer>
		<layer id="148" name="data_add_91649169" type="Const" version="opset1">
			<data element_type="f32" shape="1, 128, 1, 1" offset="1134344" size="512"/>
			<rt_info>
				<attribute name="fused_names" version="0" value="data_add_91649169"/>
			</rt_info>
			<output>
				<port id="0" precision="FP32">
					<dim>1</dim>
					<dim>128</dim>
					<dim>1</dim>
					<dim>1</dim>
				</port>
			</output>
		</layer>
		<layer id="149" name="res_4_block1_conv_proj_batchnorm/variance/Fused_Add_" type="Add" version="opset1">
			<data auto_broadcast="numpy"/>
			<rt_info>
				<attribute name="fused_names" version="0" value="res_4_block1_conv_proj_batchnorm/variance/Fused_Add_"/>
			</rt_info>
			<input>
				<port id="0" precision="FP32">
					<dim>1</dim>
					<dim>128</dim>
					<dim>14</dim>
					<dim>14</dim>
				</port>
				<port id="1" precision="FP32">
					<dim>1</dim>
					<dim>128</dim>
					<dim>1</dim>
					<dim>1</dim>
				</port>
			</input>
			<output>
				<port id="2" precision="FP32" names="res_4_block1_conv_proj_batchnorm:0">
					<dim>1</dim>
					<dim>128</dim>
					<dim>14</dim>
					<dim>14</dim>
				</port>
			</output>
		</layer>
		<layer id="150" name="_plus5" type="Add" version="opset1">
			<data auto_broadcast="numpy"/>
			<rt_info>
				<attribute name="fused_names" version="0" value="_plus5"/>
			</rt_info>
			<input>
				<port id="0" precision="FP32">
					<dim>1</dim>
					<dim>128</dim>
					<dim>14</dim>
					<dim>14</dim>
				</port>
				<port id="1" precision="FP32">
					<dim>1</dim>
					<dim>128</dim>
					<dim>14</dim>
					<dim>14</dim>
				</port>
			</input>
			<output>
				<port id="2" precision="FP32" names="_plus5:0">
					<dim>1</dim>
					<dim>128</dim>
					<dim>14</dim>
					<dim>14</dim>
				</port>
			</output>
		</layer>
		<layer id="151" name="res_4_block2_conv_sep_batchnorm/mean/Fused_Mul__copy" type="Const" version="opset1">
			<data element_type="f32" shape="256, 128, 1, 1" offset="1134856" size="131072"/>
			<rt_info>
				<attribute name="fused_names" version="0" value="res_4_block2_conv_sep_batchnorm/mean/Fused_Mul__copy"/>
			</rt_info>
			<output>
				<port id="0" precision="FP32" names="res_4_block2_conv_sep_conv2d_weight:0">
					<dim>256</dim>
					<dim>128</dim>
					<dim>1</dim>
					<dim>1</dim>
				</port>
			</output>
		</layer>
		<layer id="152" name="res_4_block2_conv_sep_conv2d" type="Convolution" version="opset1">
			<data strides="1, 1" dilations="1, 1" pads_begin="0, 0" pads_end="0, 0" auto_pad="explicit"/>
			<rt_info>
				<attribute name="fused_names" version="0" value="res_4_block2_conv_sep_conv2d"/>
			</rt_info>
			<input>
				<port id="0" precision="FP32">
					<dim>1</dim>
					<dim>128</dim>
					<dim>14</dim>
					<dim>14</dim>
				</port>
				<port id="1" precision="FP32">
					<dim>256</dim>
					<dim>128</dim>
					<dim>1</dim>
					<dim>1</dim>
				</port>
			</input>
			<output>
				<port id="2" precision="FP32">
					<dim>1</dim>
					<dim>256</dim>
					<dim>14</dim>
					<dim>14</dim>
				</port>
			</output>
		</layer>
		<layer id="153" name="data_add_91729177" type="Const" version="opset1">
			<data element_type="f32" shape="1, 256, 1, 1" offset="1265928" size="1024"/>
			<rt_info>
				<attribute name="fused_names" version="0" value="data_add_91729177"/>
			</rt_info>
			<output>
				<port id="0" precision="FP32">
					<dim>1</dim>
					<dim>256</dim>
					<dim>1</dim>
					<dim>1</dim>
				</port>
			</output>
		</layer>
		<layer id="154" name="res_4_block2_conv_sep_batchnorm/variance/Fused_Add_" type="Add" version="opset1">
			<data auto_broadcast="numpy"/>
			<rt_info>
				<attribute name="fused_names" version="0" value="res_4_block2_conv_sep_batchnorm/variance/Fused_Add_"/>
			</rt_info>
			<input>
				<port id="0" precision="FP32">
					<dim>1</dim>
					<dim>256</dim>
					<dim>14</dim>
					<dim>14</dim>
				</port>
				<port id="1" precision="FP32">
					<dim>1</dim>
					<dim>256</dim>
					<dim>1</dim>
					<dim>1</dim>
				</port>
			</input>
			<output>
				<port id="2" precision="FP32" names="res_4_block2_conv_sep_batchnorm:0">
					<dim>1</dim>
					<dim>256</dim>
					<dim>14</dim>
					<dim>14</dim>
				</port>
			</output>
		</layer>
		<layer id="155" name="res_4_block2_conv_sep_relu_gamma" type="Const" version="opset1">
			<data element_type="f32" shape="256" offset="1266952" size="1024"/>
			<rt_info>
				<attribute name="fused_names" version="0" value="res_4_block2_conv_sep_relu_gamma"/>
			</rt_info>
			<output>
				<port id="0" precision="FP32" names="res_4_block2_conv_sep_relu_gamma:0">
					<dim>256</dim>
				</port>
			</output>
		</layer>
		<layer id="156" name="res_4_block2_conv_sep_relu" type="PReLU" version="opset1">
			<rt_info>
				<attribute name="fused_names" version="0" value="res_4_block2_conv_sep_relu"/>
			</rt_info>
			<input>
				<port id="0" precision="FP32">
					<dim>1</dim>
					<dim>256</dim>
					<dim>14</dim>
					<dim>14</dim>
				</port>
				<port id="1" precision="FP32">
					<dim>256</dim>
				</port>
			</input>
			<output>
				<port id="2" precision="FP32" names="res_4_block2_conv_sep_relu:0">
					<dim>1</dim>
					<dim>256</dim>
					<dim>14</dim>
					<dim>14</dim>
				</port>
			</output>
		</layer>
		<layer id="157" name="res_4_block2_conv_dw_batchnorm/mean/Fused_Mul__copy" type="Const" version="opset1">
			<data element_type="f32" shape="256, 1, 1, 3, 3" offset="1267976" size="9216"/>
			<rt_info>
				<attribute name="fused_names" version="0" value="res_4_block2_conv_dw_batchnorm/mean/Fused_Mul__copy"/>
			</rt_info>
			<output>
				<port id="0" precision="FP32" names="res_4_block2_conv_dw_conv2d_weight:0">
					<dim>256</dim>
					<dim>1</dim>
					<dim>1</dim>
					<dim>3</dim>
					<dim>3</dim>
				</port>
			</output>
		</layer>
		<layer id="158" name="res_4_block2_conv_dw_conv2d" type="GroupConvolution" version="opset1">
			<data strides="1, 1" pads_begin="1, 1" pads_end="1, 1" dilations="1, 1" auto_pad="explicit"/>
			<rt_info>
				<attribute name="fused_names" version="0" value="res_4_block2_conv_dw_conv2d"/>
			</rt_info>
			<input>
				<port id="0" precision="FP32">
					<dim>1</dim>
					<dim>256</dim>
					<dim>14</dim>
					<dim>14</dim>
				</port>
				<port id="1" precision="FP32">
					<dim>256</dim>
					<dim>1</dim>
					<dim>1</dim>
					<dim>3</dim>
					<dim>3</dim>
				</port>
			</input>
			<output>
				<port id="2" precision="FP32">
					<dim>1</dim>
					<dim>256</dim>
					<dim>14</dim>
					<dim>14</dim>
				</port>
			</output>
		</layer>
		<layer id="159" name="data_add_91809185" type="Const" version="opset1">
			<data element_type="f32" shape="1, 256, 1, 1" offset="1277192" size="1024"/>
			<rt_info>
				<attribute name="fused_names" version="0" value="data_add_91809185"/>
			</rt_info>
			<output>
				<port id="0" precision="FP32">
					<dim>1</dim>
					<dim>256</dim>
					<dim>1</dim>
					<dim>1</dim>
				</port>
			</output>
		</layer>
		<layer id="160" name="res_4_block2_conv_dw_batchnorm/variance/Fused_Add_" type="Add" version="opset1">
			<data auto_broadcast="numpy"/>
			<rt_info>
				<attribute name="fused_names" version="0" value="res_4_block2_conv_dw_batchnorm/variance/Fused_Add_"/>
			</rt_info>
			<input>
				<port id="0" precision="FP32">
					<dim>1</dim>
					<dim>256</dim>
					<dim>14</dim>
					<dim>14</dim>
				</port>
				<port id="1" precision="FP32">
					<dim>1</dim>
					<dim>256</dim>
					<dim>1</dim>
					<dim>1</dim>
				</port>
			</input>
			<output>
				<port id="2" precision="FP32" names="res_4_block2_conv_dw_batchnorm:0">
					<dim>1</dim>
					<dim>256</dim>
					<dim>14</dim>
					<dim>14</dim>
				</port>
			</output>
		</layer>
		<layer id="161" name="res_4_block2_conv_dw_relu_gamma" type="Const" version="opset1">
			<data element_type="f32" shape="256" offset="1278216" size="1024"/>
			<rt_info>
				<attribute name="fused_names" version="0" value="res_4_block2_conv_dw_relu_gamma"/>
			</rt_info>
			<output>
				<port id="0" precision="FP32" names="res_4_block2_conv_dw_relu_gamma:0">
					<dim>256</dim>
				</port>
			</output>
		</layer>
		<layer id="162" name="res_4_block2_conv_dw_relu" type="PReLU" version="opset1">
			<rt_info>
				<attribute name="fused_names" version="0" value="res_4_block2_conv_dw_relu"/>
			</rt_info>
			<input>
				<port id="0" precision="FP32">
					<dim>1</dim>
					<dim>256</dim>
					<dim>14</dim>
					<dim>14</dim>
				</port>
				<port id="1" precision="FP32">
					<dim>256</dim>
				</port>
			</input>
			<output>
				<port id="2" precision="FP32" names="res_4_block2_conv_dw_relu:0">
					<dim>1</dim>
					<dim>256</dim>
					<dim>14</dim>
					<dim>14</dim>
				</port>
			</output>
		</layer>
		<layer id="163" name="res_4_block2_conv_proj_batchnorm/mean/Fused_Mul__copy" type="Const" version="opset1">
			<data element_type="f32" shape="128, 256, 1, 1" offset="1279240" size="131072"/>
			<rt_info>
				<attribute name="fused_names" version="0" value="res_4_block2_conv_proj_batchnorm/mean/Fused_Mul__copy"/>
			</rt_info>
			<output>
				<port id="0" precision="FP32" names="res_4_block2_conv_proj_conv2d_weight:0">
					<dim>128</dim>
					<dim>256</dim>
					<dim>1</dim>
					<dim>1</dim>
				</port>
			</output>
		</layer>
		<layer id="164" name="res_4_block2_conv_proj_conv2d" type="Convolution" version="opset1">
			<data strides="1, 1" dilations="1, 1" pads_begin="0, 0" pads_end="0, 0" auto_pad="explicit"/>
			<rt_info>
				<attribute name="fused_names" version="0" value="res_4_block2_conv_proj_conv2d"/>
			</rt_info>
			<input>
				<port id="0" precision="FP32">
					<dim>1</dim>
					<dim>256</dim>
					<dim>14</dim>
					<dim>14</dim>
				</port>
				<port id="1" precision="FP32">
					<dim>128</dim>
					<dim>256</dim>
					<dim>1</dim>
					<dim>1</dim>
				</port>
			</input>
			<output>
				<port id="2" precision="FP32">
					<dim>1</dim>
					<dim>128</dim>
					<dim>14</dim>
					<dim>14</dim>
				</port>
			</output>
		</layer>
		<layer id="165" name="data_add_91889193" type="Const" version="opset1">
			<data element_type="f32" shape="1, 128, 1, 1" offset="1410312" size="512"/>
			<rt_info>
				<attribute name="fused_names" version="0" value="data_add_91889193"/>
			</rt_info>
			<output>
				<port id="0" precision="FP32">
					<dim>1</dim>
					<dim>128</dim>
					<dim>1</dim>
					<dim>1</dim>
				</port>
			</output>
		</layer>
		<layer id="166" name="res_4_block2_conv_proj_batchnorm/variance/Fused_Add_" type="Add" version="opset1">
			<data auto_broadcast="numpy"/>
			<rt_info>
				<attribute name="fused_names" version="0" value="res_4_block2_conv_proj_batchnorm/variance/Fused_Add_"/>
			</rt_info>
			<input>
				<port id="0" precision="FP32">
					<dim>1</dim>
					<dim>128</dim>
					<dim>14</dim>
					<dim>14</dim>
				</port>
				<port id="1" precision="FP32">
					<dim>1</dim>
					<dim>128</dim>
					<dim>1</dim>
					<dim>1</dim>
				</port>
			</input>
			<output>
				<port id="2" precision="FP32" names="res_4_block2_conv_proj_batchnorm:0">
					<dim>1</dim>
					<dim>128</dim>
					<dim>14</dim>
					<dim>14</dim>
				</port>
			</output>
		</layer>
		<layer id="167" name="_plus6" type="Add" version="opset1">
			<data auto_broadcast="numpy"/>
			<rt_info>
				<attribute name="fused_names" version="0" value="_plus6"/>
			</rt_info>
			<input>
				<port id="0" precision="FP32">
					<dim>1</dim>
					<dim>128</dim>
					<dim>14</dim>
					<dim>14</dim>
				</port>
				<port id="1" precision="FP32">
					<dim>1</dim>
					<dim>128</dim>
					<dim>14</dim>
					<dim>14</dim>
				</port>
			</input>
			<output>
				<port id="2" precision="FP32" names="_plus6:0">
					<dim>1</dim>
					<dim>128</dim>
					<dim>14</dim>
					<dim>14</dim>
				</port>
			</output>
		</layer>
		<layer id="168" name="res_4_block3_conv_sep_batchnorm/mean/Fused_Mul__copy" type="Const" version="opset1">
			<data element_type="f32" shape="256, 128, 1, 1" offset="1410824" size="131072"/>
			<rt_info>
				<attribute name="fused_names" version="0" value="res_4_block3_conv_sep_batchnorm/mean/Fused_Mul__copy"/>
			</rt_info>
			<output>
				<port id="0" precision="FP32" names="res_4_block3_conv_sep_conv2d_weight:0">
					<dim>256</dim>
					<dim>128</dim>
					<dim>1</dim>
					<dim>1</dim>
				</port>
			</output>
		</layer>
		<layer id="169" name="res_4_block3_conv_sep_conv2d" type="Convolution" version="opset1">
			<data strides="1, 1" dilations="1, 1" pads_begin="0, 0" pads_end="0, 0" auto_pad="explicit"/>
			<rt_info>
				<attribute name="fused_names" version="0" value="res_4_block3_conv_sep_conv2d"/>
			</rt_info>
			<input>
				<port id="0" precision="FP32">
					<dim>1</dim>
					<dim>128</dim>
					<dim>14</dim>
					<dim>14</dim>
				</port>
				<port id="1" precision="FP32">
					<dim>256</dim>
					<dim>128</dim>
					<dim>1</dim>
					<dim>1</dim>
				</port>
			</input>
			<output>
				<port id="2" precision="FP32">
					<dim>1</dim>
					<dim>256</dim>
					<dim>14</dim>
					<dim>14</dim>
				</port>
			</output>
		</layer>
		<layer id="170" name="data_add_91969201" type="Const" version="opset1">
			<data element_type="f32" shape="1, 256, 1, 1" offset="1541896" size="1024"/>
			<rt_info>
				<attribute name="fused_names" version="0" value="data_add_91969201"/>
			</rt_info>
			<output>
				<port id="0" precision="FP32">
					<dim>1</dim>
					<dim>256</dim>
					<dim>1</dim>
					<dim>1</dim>
				</port>
			</output>
		</layer>
		<layer id="171" name="res_4_block3_conv_sep_batchnorm/variance/Fused_Add_" type="Add" version="opset1">
			<data auto_broadcast="numpy"/>
			<rt_info>
				<attribute name="fused_names" version="0" value="res_4_block3_conv_sep_batchnorm/variance/Fused_Add_"/>
			</rt_info>
			<input>
				<port id="0" precision="FP32">
					<dim>1</dim>
					<dim>256</dim>
					<dim>14</dim>
					<dim>14</dim>
				</port>
				<port id="1" precision="FP32">
					<dim>1</dim>
					<dim>256</dim>
					<dim>1</dim>
					<dim>1</dim>
				</port>
			</input>
			<output>
				<port id="2" precision="FP32" names="res_4_block3_conv_sep_batchnorm:0">
					<dim>1</dim>
					<dim>256</dim>
					<dim>14</dim>
					<dim>14</dim>
				</port>
			</output>
		</layer>
		<layer id="172" name="res_4_block3_conv_sep_relu_gamma" type="Const" version="opset1">
			<data element_type="f32" shape="256" offset="1542920" size="1024"/>
			<rt_info>
				<attribute name="fused_names" version="0" value="res_4_block3_conv_sep_relu_gamma"/>
			</rt_info>
			<output>
				<port id="0" precision="FP32" names="res_4_block3_conv_sep_relu_gamma:0">
					<dim>256</dim>
				</port>
			</output>
		</layer>
		<layer id="173" name="res_4_block3_conv_sep_relu" type="PReLU" version="opset1">
			<rt_info>
				<attribute name="fused_names" version="0" value="res_4_block3_conv_sep_relu"/>
			</rt_info>
			<input>
				<port id="0" precision="FP32">
					<dim>1</dim>
					<dim>256</dim>
					<dim>14</dim>
					<dim>14</dim>
				</port>
				<port id="1" precision="FP32">
					<dim>256</dim>
				</port>
			</input>
			<output>
				<port id="2" precision="FP32" names="res_4_block3_conv_sep_relu:0">
					<dim>1</dim>
					<dim>256</dim>
					<dim>14</dim>
					<dim>14</dim>
				</port>
			</output>
		</layer>
		<layer id="174" name="res_4_block3_conv_dw_batchnorm/mean/Fused_Mul__copy" type="Const" version="opset1">
			<data element_type="f32" shape="256, 1, 1, 3, 3" offset="1543944" size="9216"/>
			<rt_info>
				<attribute name="fused_names" version="0" value="res_4_block3_conv_dw_batchnorm/mean/Fused_Mul__copy"/>
			</rt_info>
			<output>
				<port id="0" precision="FP32" names="res_4_block3_conv_dw_conv2d_weight:0">
					<dim>256</dim>
					<dim>1</dim>
					<dim>1</dim>
					<dim>3</dim>
					<dim>3</dim>
				</port>
			</output>
		</layer>
		<layer id="175" name="res_4_block3_conv_dw_conv2d" type="GroupConvolution" version="opset1">
			<data strides="1, 1" pads_begin="1, 1" pads_end="1, 1" dilations="1, 1" auto_pad="explicit"/>
			<rt_info>
				<attribute name="fused_names" version="0" value="res_4_block3_conv_dw_conv2d"/>
			</rt_info>
			<input>
				<port id="0" precision="FP32">
					<dim>1</dim>
					<dim>256</dim>
					<dim>14</dim>
					<dim>14</dim>
				</port>
				<port id="1" precision="FP32">
					<dim>256</dim>
					<dim>1</dim>
					<dim>1</dim>
					<dim>3</dim>
					<dim>3</dim>
				</port>
			</input>
			<output>
				<port id="2" precision="FP32">
					<dim>1</dim>
					<dim>256</dim>
					<dim>14</dim>
					<dim>14</dim>
				</port>
			</output>
		</layer>
		<layer id="176" name="data_add_92049209" type="Const" version="opset1">
			<data element_type="f32" shape="1, 256, 1, 1" offset="1553160" size="1024"/>
			<rt_info>
				<attribute name="fused_names" version="0" value="data_add_92049209"/>
			</rt_info>
			<output>
				<port id="0" precision="FP32">
					<dim>1</dim>
					<dim>256</dim>
					<dim>1</dim>
					<dim>1</dim>
				</port>
			</output>
		</layer>
		<layer id="177" name="res_4_block3_conv_dw_batchnorm/variance/Fused_Add_" type="Add" version="opset1">
			<data auto_broadcast="numpy"/>
			<rt_info>
				<attribute name="fused_names" version="0" value="res_4_block3_conv_dw_batchnorm/variance/Fused_Add_"/>
			</rt_info>
			<input>
				<port id="0" precision="FP32">
					<dim>1</dim>
					<dim>256</dim>
					<dim>14</dim>
					<dim>14</dim>
				</port>
				<port id="1" precision="FP32">
					<dim>1</dim>
					<dim>256</dim>
					<dim>1</dim>
					<dim>1</dim>
				</port>
			</input>
			<output>
				<port id="2" precision="FP32" names="res_4_block3_conv_dw_batchnorm:0">
					<dim>1</dim>
					<dim>256</dim>
					<dim>14</dim>
					<dim>14</dim>
				</port>
			</output>
		</layer>
		<layer id="178" name="res_4_block3_conv_dw_relu_gamma" type="Const" version="opset1">
			<data element_type="f32" shape="256" offset="1554184" size="1024"/>
			<rt_info>
				<attribute name="fused_names" version="0" value="res_4_block3_conv_dw_relu_gamma"/>
			</rt_info>
			<output>
				<port id="0" precision="FP32" names="res_4_block3_conv_dw_relu_gamma:0">
					<dim>256</dim>
				</port>
			</output>
		</layer>
		<layer id="179" name="res_4_block3_conv_dw_relu" type="PReLU" version="opset1">
			<rt_info>
				<attribute name="fused_names" version="0" value="res_4_block3_conv_dw_relu"/>
			</rt_info>
			<input>
				<port id="0" precision="FP32">
					<dim>1</dim>
					<dim>256</dim>
					<dim>14</dim>
					<dim>14</dim>
				</port>
				<port id="1" precision="FP32">
					<dim>256</dim>
				</port>
			</input>
			<output>
				<port id="2" precision="FP32" names="res_4_block3_conv_dw_relu:0">
					<dim>1</dim>
					<dim>256</dim>
					<dim>14</dim>
					<dim>14</dim>
				</port>
			</output>
		</layer>
		<layer id="180" name="res_4_block3_conv_proj_batchnorm/mean/Fused_Mul__copy" type="Const" version="opset1">
			<data element_type="f32" shape="128, 256, 1, 1" offset="1555208" size="131072"/>
			<rt_info>
				<attribute name="fused_names" version="0" value="res_4_block3_conv_proj_batchnorm/mean/Fused_Mul__copy"/>
			</rt_info>
			<output>
				<port id="0" precision="FP32" names="res_4_block3_conv_proj_conv2d_weight:0">
					<dim>128</dim>
					<dim>256</dim>
					<dim>1</dim>
					<dim>1</dim>
				</port>
			</output>
		</layer>
		<layer id="181" name="res_4_block3_conv_proj_conv2d" type="Convolution" version="opset1">
			<data strides="1, 1" dilations="1, 1" pads_begin="0, 0" pads_end="0, 0" auto_pad="explicit"/>
			<rt_info>
				<attribute name="fused_names" version="0" value="res_4_block3_conv_proj_conv2d"/>
			</rt_info>
			<input>
				<port id="0" precision="FP32">
					<dim>1</dim>
					<dim>256</dim>
					<dim>14</dim>
					<dim>14</dim>
				</port>
				<port id="1" precision="FP32">
					<dim>128</dim>
					<dim>256</dim>
					<dim>1</dim>
					<dim>1</dim>
				</port>
			</input>
			<output>
				<port id="2" precision="FP32">
					<dim>1</dim>
					<dim>128</dim>
					<dim>14</dim>
					<dim>14</dim>
				</port>
			</output>
		</layer>
		<layer id="182" name="data_add_92129217" type="Const" version="opset1">
			<data element_type="f32" shape="1, 128, 1, 1" offset="1686280" size="512"/>
			<rt_info>
				<attribute name="fused_names" version="0" value="data_add_92129217"/>
			</rt_info>
			<output>
				<port id="0" precision="FP32">
					<dim>1</dim>
					<dim>128</dim>
					<dim>1</dim>
					<dim>1</dim>
				</port>
			</output>
		</layer>
		<layer id="183" name="res_4_block3_conv_proj_batchnorm/variance/Fused_Add_" type="Add" version="opset1">
			<data auto_broadcast="numpy"/>
			<rt_info>
				<attribute name="fused_names" version="0" value="res_4_block3_conv_proj_batchnorm/variance/Fused_Add_"/>
			</rt_info>
			<input>
				<port id="0" precision="FP32">
					<dim>1</dim>
					<dim>128</dim>
					<dim>14</dim>
					<dim>14</dim>
				</port>
				<port id="1" precision="FP32">
					<dim>1</dim>
					<dim>128</dim>
					<dim>1</dim>
					<dim>1</dim>
				</port>
			</input>
			<output>
				<port id="2" precision="FP32" names="res_4_block3_conv_proj_batchnorm:0">
					<dim>1</dim>
					<dim>128</dim>
					<dim>14</dim>
					<dim>14</dim>
				</port>
			</output>
		</layer>
		<layer id="184" name="_plus7" type="Add" version="opset1">
			<data auto_broadcast="numpy"/>
			<rt_info>
				<attribute name="fused_names" version="0" value="_plus7"/>
			</rt_info>
			<input>
				<port id="0" precision="FP32">
					<dim>1</dim>
					<dim>128</dim>
					<dim>14</dim>
					<dim>14</dim>
				</port>
				<port id="1" precision="FP32">
					<dim>1</dim>
					<dim>128</dim>
					<dim>14</dim>
					<dim>14</dim>
				</port>
			</input>
			<output>
				<port id="2" precision="FP32" names="_plus7:0">
					<dim>1</dim>
					<dim>128</dim>
					<dim>14</dim>
					<dim>14</dim>
				</port>
			</output>
		</layer>
		<layer id="185" name="res_4_block4_conv_sep_batchnorm/mean/Fused_Mul__copy" type="Const" version="opset1">
			<data element_type="f32" shape="256, 128, 1, 1" offset="1686792" size="131072"/>
			<rt_info>
				<attribute name="fused_names" version="0" value="res_4_block4_conv_sep_batchnorm/mean/Fused_Mul__copy"/>
			</rt_info>
			<output>
				<port id="0" precision="FP32" names="res_4_block4_conv_sep_conv2d_weight:0">
					<dim>256</dim>
					<dim>128</dim>
					<dim>1</dim>
					<dim>1</dim>
				</port>
			</output>
		</layer>
		<layer id="186" name="res_4_block4_conv_sep_conv2d" type="Convolution" version="opset1">
			<data strides="1, 1" dilations="1, 1" pads_begin="0, 0" pads_end="0, 0" auto_pad="explicit"/>
			<rt_info>
				<attribute name="fused_names" version="0" value="res_4_block4_conv_sep_conv2d"/>
			</rt_info>
			<input>
				<port id="0" precision="FP32">
					<dim>1</dim>
					<dim>128</dim>
					<dim>14</dim>
					<dim>14</dim>
				</port>
				<port id="1" precision="FP32">
					<dim>256</dim>
					<dim>128</dim>
					<dim>1</dim>
					<dim>1</dim>
				</port>
			</input>
			<output>
				<port id="2" precision="FP32">
					<dim>1</dim>
					<dim>256</dim>
					<dim>14</dim>
					<dim>14</dim>
				</port>
			</output>
		</layer>
		<layer id="187" name="data_add_92209225" type="Const" version="opset1">
			<data element_type="f32" shape="1, 256, 1, 1" offset="1817864" size="1024"/>
			<rt_info>
				<attribute name="fused_names" version="0" value="data_add_92209225"/>
			</rt_info>
			<output>
				<port id="0" precision="FP32">
					<dim>1</dim>
					<dim>256</dim>
					<dim>1</dim>
					<dim>1</dim>
				</port>
			</output>
		</layer>
		<layer id="188" name="res_4_block4_conv_sep_batchnorm/variance/Fused_Add_" type="Add" version="opset1">
			<data auto_broadcast="numpy"/>
			<rt_info>
				<attribute name="fused_names" version="0" value="res_4_block4_conv_sep_batchnorm/variance/Fused_Add_"/>
			</rt_info>
			<input>
				<port id="0" precision="FP32">
					<dim>1</dim>
					<dim>256</dim>
					<dim>14</dim>
					<dim>14</dim>
				</port>
				<port id="1" precision="FP32">
					<dim>1</dim>
					<dim>256</dim>
					<dim>1</dim>
					<dim>1</dim>
				</port>
			</input>
			<output>
				<port id="2" precision="FP32" names="res_4_block4_conv_sep_batchnorm:0">
					<dim>1</dim>
					<dim>256</dim>
					<dim>14</dim>
					<dim>14</dim>
				</port>
			</output>
		</layer>
		<layer id="189" name="res_4_block4_conv_sep_relu_gamma" type="Const" version="opset1">
			<data element_type="f32" shape="256" offset="1818888" size="1024"/>
			<rt_info>
				<attribute name="fused_names" version="0" value="res_4_block4_conv_sep_relu_gamma"/>
			</rt_info>
			<output>
				<port id="0" precision="FP32" names="res_4_block4_conv_sep_relu_gamma:0">
					<dim>256</dim>
				</port>
			</output>
		</layer>
		<layer id="190" name="res_4_block4_conv_sep_relu" type="PReLU" version="opset1">
			<rt_info>
				<attribute name="fused_names" version="0" value="res_4_block4_conv_sep_relu"/>
			</rt_info>
			<input>
				<port id="0" precision="FP32">
					<dim>1</dim>
					<dim>256</dim>
					<dim>14</dim>
					<dim>14</dim>
				</port>
				<port id="1" precision="FP32">
					<dim>256</dim>
				</port>
			</input>
			<output>
				<port id="2" precision="FP32" names="res_4_block4_conv_sep_relu:0">
					<dim>1</dim>
					<dim>256</dim>
					<dim>14</dim>
					<dim>14</dim>
				</port>
			</output>
		</layer>
		<layer id="191" name="res_4_block4_conv_dw_batchnorm/mean/Fused_Mul__copy" type="Const" version="opset1">
			<data element_type="f32" shape="256, 1, 1, 3, 3" offset="1819912" size="9216"/>
			<rt_info>
				<attribute name="fused_names" version="0" value="res_4_block4_conv_dw_batchnorm/mean/Fused_Mul__copy"/>
			</rt_info>
			<output>
				<port id="0" precision="FP32" names="res_4_block4_conv_dw_conv2d_weight:0">
					<dim>256</dim>
					<dim>1</dim>
					<dim>1</dim>
					<dim>3</dim>
					<dim>3</dim>
				</port>
			</output>
		</layer>
		<layer id="192" name="res_4_block4_conv_dw_conv2d" type="GroupConvolution" version="opset1">
			<data strides="1, 1" pads_begin="1, 1" pads_end="1, 1" dilations="1, 1" auto_pad="explicit"/>
			<rt_info>
				<attribute name="fused_names" version="0" value="res_4_block4_conv_dw_conv2d"/>
			</rt_info>
			<input>
				<port id="0" precision="FP32">
					<dim>1</dim>
					<dim>256</dim>
					<dim>14</dim>
					<dim>14</dim>
				</port>
				<port id="1" precision="FP32">
					<dim>256</dim>
					<dim>1</dim>
					<dim>1</dim>
					<dim>3</dim>
					<dim>3</dim>
				</port>
			</input>
			<output>
				<port id="2" precision="FP32">
					<dim>1</dim>
					<dim>256</dim>
					<dim>14</dim>
					<dim>14</dim>
				</port>
			</output>
		</layer>
		<layer id="193" name="data_add_92289233" type="Const" version="opset1">
			<data element_type="f32" shape="1, 256, 1, 1" offset="1829128" size="1024"/>
			<rt_info>
				<attribute name="fused_names" version="0" value="data_add_92289233"/>
			</rt_info>
			<output>
				<port id="0" precision="FP32">
					<dim>1</dim>
					<dim>256</dim>
					<dim>1</dim>
					<dim>1</dim>
				</port>
			</output>
		</layer>
		<layer id="194" name="res_4_block4_conv_dw_batchnorm/variance/Fused_Add_" type="Add" version="opset1">
			<data auto_broadcast="numpy"/>
			<rt_info>
				<attribute name="fused_names" version="0" value="res_4_block4_conv_dw_batchnorm/variance/Fused_Add_"/>
			</rt_info>
			<input>
				<port id="0" precision="FP32">
					<dim>1</dim>
					<dim>256</dim>
					<dim>14</dim>
					<dim>14</dim>
				</port>
				<port id="1" precision="FP32">
					<dim>1</dim>
					<dim>256</dim>
					<dim>1</dim>
					<dim>1</dim>
				</port>
			</input>
			<output>
				<port id="2" precision="FP32" names="res_4_block4_conv_dw_batchnorm:0">
					<dim>1</dim>
					<dim>256</dim>
					<dim>14</dim>
					<dim>14</dim>
				</port>
			</output>
		</layer>
		<layer id="195" name="res_4_block4_conv_dw_relu_gamma" type="Const" version="opset1">
			<data element_type="f32" shape="256" offset="1830152" size="1024"/>
			<rt_info>
				<attribute name="fused_names" version="0" value="res_4_block4_conv_dw_relu_gamma"/>
			</rt_info>
			<output>
				<port id="0" precision="FP32" names="res_4_block4_conv_dw_relu_gamma:0">
					<dim>256</dim>
				</port>
			</output>
		</layer>
		<layer id="196" name="res_4_block4_conv_dw_relu" type="PReLU" version="opset1">
			<rt_info>
				<attribute name="fused_names" version="0" value="res_4_block4_conv_dw_relu"/>
			</rt_info>
			<input>
				<port id="0" precision="FP32">
					<dim>1</dim>
					<dim>256</dim>
					<dim>14</dim>
					<dim>14</dim>
				</port>
				<port id="1" precision="FP32">
					<dim>256</dim>
				</port>
			</input>
			<output>
				<port id="2" precision="FP32" names="res_4_block4_conv_dw_relu:0">
					<dim>1</dim>
					<dim>256</dim>
					<dim>14</dim>
					<dim>14</dim>
				</port>
			</output>
		</layer>
		<layer id="197" name="res_4_block4_conv_proj_batchnorm/mean/Fused_Mul__copy" type="Const" version="opset1">
			<data element_type="f32" shape="128, 256, 1, 1" offset="1831176" size="131072"/>
			<rt_info>
				<attribute name="fused_names" version="0" value="res_4_block4_conv_proj_batchnorm/mean/Fused_Mul__copy"/>
			</rt_info>
			<output>
				<port id="0" precision="FP32" names="res_4_block4_conv_proj_conv2d_weight:0">
					<dim>128</dim>
					<dim>256</dim>
					<dim>1</dim>
					<dim>1</dim>
				</port>
			</output>
		</layer>
		<layer id="198" name="res_4_block4_conv_proj_conv2d" type="Convolution" version="opset1">
			<data strides="1, 1" dilations="1, 1" pads_begin="0, 0" pads_end="0, 0" auto_pad="explicit"/>
			<rt_info>
				<attribute name="fused_names" version="0" value="res_4_block4_conv_proj_conv2d"/>
			</rt_info>
			<input>
				<port id="0" precision="FP32">
					<dim>1</dim>
					<dim>256</dim>
					<dim>14</dim>
					<dim>14</dim>
				</port>
				<port id="1" precision="FP32">
					<dim>128</dim>
					<dim>256</dim>
					<dim>1</dim>
					<dim>1</dim>
				</port>
			</input>
			<output>
				<port id="2" precision="FP32">
					<dim>1</dim>
					<dim>128</dim>
					<dim>14</dim>
					<dim>14</dim>
				</port>
			</output>
		</layer>
		<layer id="199" name="data_add_92369241" type="Const" version="opset1">
			<data element_type="f32" shape="1, 128, 1, 1" offset="1962248" size="512"/>
			<rt_info>
				<attribute name="fused_names" version="0" value="data_add_92369241"/>
			</rt_info>
			<output>
				<port id="0" precision="FP32">
					<dim>1</dim>
					<dim>128</dim>
					<dim>1</dim>
					<dim>1</dim>
				</port>
			</output>
		</layer>
		<layer id="200" name="res_4_block4_conv_proj_batchnorm/variance/Fused_Add_" type="Add" version="opset1">
			<data auto_broadcast="numpy"/>
			<rt_info>
				<attribute name="fused_names" version="0" value="res_4_block4_conv_proj_batchnorm/variance/Fused_Add_"/>
			</rt_info>
			<input>
				<port id="0" precision="FP32">
					<dim>1</dim>
					<dim>128</dim>
					<dim>14</dim>
					<dim>14</dim>
				</port>
				<port id="1" precision="FP32">
					<dim>1</dim>
					<dim>128</dim>
					<dim>1</dim>
					<dim>1</dim>
				</port>
			</input>
			<output>
				<port id="2" precision="FP32" names="res_4_block4_conv_proj_batchnorm:0">
					<dim>1</dim>
					<dim>128</dim>
					<dim>14</dim>
					<dim>14</dim>
				</port>
			</output>
		</layer>
		<layer id="201" name="_plus8" type="Add" version="opset1">
			<data auto_broadcast="numpy"/>
			<rt_info>
				<attribute name="fused_names" version="0" value="_plus8"/>
			</rt_info>
			<input>
				<port id="0" precision="FP32">
					<dim>1</dim>
					<dim>128</dim>
					<dim>14</dim>
					<dim>14</dim>
				</port>
				<port id="1" precision="FP32">
					<dim>1</dim>
					<dim>128</dim>
					<dim>14</dim>
					<dim>14</dim>
				</port>
			</input>
			<output>
				<port id="2" precision="FP32" names="_plus8:0">
					<dim>1</dim>
					<dim>128</dim>
					<dim>14</dim>
					<dim>14</dim>
				</port>
			</output>
		</layer>
		<layer id="202" name="res_4_block5_conv_sep_batchnorm/mean/Fused_Mul__copy" type="Const" version="opset1">
			<data element_type="f32" shape="256, 128, 1, 1" offset="1962760" size="131072"/>
			<rt_info>
				<attribute name="fused_names" version="0" value="res_4_block5_conv_sep_batchnorm/mean/Fused_Mul__copy"/>
			</rt_info>
			<output>
				<port id="0" precision="FP32" names="res_4_block5_conv_sep_conv2d_weight:0">
					<dim>256</dim>
					<dim>128</dim>
					<dim>1</dim>
					<dim>1</dim>
				</port>
			</output>
		</layer>
		<layer id="203" name="res_4_block5_conv_sep_conv2d" type="Convolution" version="opset1">
			<data strides="1, 1" dilations="1, 1" pads_begin="0, 0" pads_end="0, 0" auto_pad="explicit"/>
			<rt_info>
				<attribute name="fused_names" version="0" value="res_4_block5_conv_sep_conv2d"/>
			</rt_info>
			<input>
				<port id="0" precision="FP32">
					<dim>1</dim>
					<dim>128</dim>
					<dim>14</dim>
					<dim>14</dim>
				</port>
				<port id="1" precision="FP32">
					<dim>256</dim>
					<dim>128</dim>
					<dim>1</dim>
					<dim>1</dim>
				</port>
			</input>
			<output>
				<port id="2" precision="FP32">
					<dim>1</dim>
					<dim>256</dim>
					<dim>14</dim>
					<dim>14</dim>
				</port>
			</output>
		</layer>
		<layer id="204" name="data_add_92449249" type="Const" version="opset1">
			<data element_type="f32" shape="1, 256, 1, 1" offset="2093832" size="1024"/>
			<rt_info>
				<attribute name="fused_names" version="0" value="data_add_92449249"/>
			</rt_info>
			<output>
				<port id="0" precision="FP32">
					<dim>1</dim>
					<dim>256</dim>
					<dim>1</dim>
					<dim>1</dim>
				</port>
			</output>
		</layer>
		<layer id="205" name="res_4_block5_conv_sep_batchnorm/variance/Fused_Add_" type="Add" version="opset1">
			<data auto_broadcast="numpy"/>
			<rt_info>
				<attribute name="fused_names" version="0" value="res_4_block5_conv_sep_batchnorm/variance/Fused_Add_"/>
			</rt_info>
			<input>
				<port id="0" precision="FP32">
					<dim>1</dim>
					<dim>256</dim>
					<dim>14</dim>
					<dim>14</dim>
				</port>
				<port id="1" precision="FP32">
					<dim>1</dim>
					<dim>256</dim>
					<dim>1</dim>
					<dim>1</dim>
				</port>
			</input>
			<output>
				<port id="2" precision="FP32" names="res_4_block5_conv_sep_batchnorm:0">
					<dim>1</dim>
					<dim>256</dim>
					<dim>14</dim>
					<dim>14</dim>
				</port>
			</output>
		</layer>
		<layer id="206" name="res_4_block5_conv_sep_relu_gamma" type="Const" version="opset1">
			<data element_type="f32" shape="256" offset="2094856" size="1024"/>
			<rt_info>
				<attribute name="fused_names" version="0" value="res_4_block5_conv_sep_relu_gamma"/>
			</rt_info>
			<output>
				<port id="0" precision="FP32" names="res_4_block5_conv_sep_relu_gamma:0">
					<dim>256</dim>
				</port>
			</output>
		</layer>
		<layer id="207" name="res_4_block5_conv_sep_relu" type="PReLU" version="opset1">
			<rt_info>
				<attribute name="fused_names" version="0" value="res_4_block5_conv_sep_relu"/>
			</rt_info>
			<input>
				<port id="0" precision="FP32">
					<dim>1</dim>
					<dim>256</dim>
					<dim>14</dim>
					<dim>14</dim>
				</port>
				<port id="1" precision="FP32">
					<dim>256</dim>
				</port>
			</input>
			<output>
				<port id="2" precision="FP32" names="res_4_block5_conv_sep_relu:0">
					<dim>1</dim>
					<dim>256</dim>
					<dim>14</dim>
					<dim>14</dim>
				</port>
			</output>
		</layer>
		<layer id="208" name="res_4_block5_conv_dw_batchnorm/mean/Fused_Mul__copy" type="Const" version="opset1">
			<data element_type="f32" shape="256, 1, 1, 3, 3" offset="2095880" size="9216"/>
			<rt_info>
				<attribute name="fused_names" version="0" value="res_4_block5_conv_dw_batchnorm/mean/Fused_Mul__copy"/>
			</rt_info>
			<output>
				<port id="0" precision="FP32" names="res_4_block5_conv_dw_conv2d_weight:0">
					<dim>256</dim>
					<dim>1</dim>
					<dim>1</dim>
					<dim>3</dim>
					<dim>3</dim>
				</port>
			</output>
		</layer>
		<layer id="209" name="res_4_block5_conv_dw_conv2d" type="GroupConvolution" version="opset1">
			<data strides="1, 1" pads_begin="1, 1" pads_end="1, 1" dilations="1, 1" auto_pad="explicit"/>
			<rt_info>
				<attribute name="fused_names" version="0" value="res_4_block5_conv_dw_conv2d"/>
			</rt_info>
			<input>
				<port id="0" precision="FP32">
					<dim>1</dim>
					<dim>256</dim>
					<dim>14</dim>
					<dim>14</dim>
				</port>
				<port id="1" precision="FP32">
					<dim>256</dim>
					<dim>1</dim>
					<dim>1</dim>
					<dim>3</dim>
					<dim>3</dim>
				</port>
			</input>
			<output>
				<port id="2" precision="FP32">
					<dim>1</dim>
					<dim>256</dim>
					<dim>14</dim>
					<dim>14</dim>
				</port>
			</output>
		</layer>
		<layer id="210" name="data_add_92529257" type="Const" version="opset1">
			<data element_type="f32" shape="1, 256, 1, 1" offset="2105096" size="1024"/>
			<rt_info>
				<attribute name="fused_names" version="0" value="data_add_92529257"/>
			</rt_info>
			<output>
				<port id="0" precision="FP32">
					<dim>1</dim>
					<dim>256</dim>
					<dim>1</dim>
					<dim>1</dim>
				</port>
			</output>
		</layer>
		<layer id="211" name="res_4_block5_conv_dw_batchnorm/variance/Fused_Add_" type="Add" version="opset1">
			<data auto_broadcast="numpy"/>
			<rt_info>
				<attribute name="fused_names" version="0" value="res_4_block5_conv_dw_batchnorm/variance/Fused_Add_"/>
			</rt_info>
			<input>
				<port id="0" precision="FP32">
					<dim>1</dim>
					<dim>256</dim>
					<dim>14</dim>
					<dim>14</dim>
				</port>
				<port id="1" precision="FP32">
					<dim>1</dim>
					<dim>256</dim>
					<dim>1</dim>
					<dim>1</dim>
				</port>
			</input>
			<output>
				<port id="2" precision="FP32" names="res_4_block5_conv_dw_batchnorm:0">
					<dim>1</dim>
					<dim>256</dim>
					<dim>14</dim>
					<dim>14</dim>
				</port>
			</output>
		</layer>
		<layer id="212" name="res_4_block5_conv_dw_relu_gamma" type="Const" version="opset1">
			<data element_type="f32" shape="256" offset="2106120" size="1024"/>
			<rt_info>
				<attribute name="fused_names" version="0" value="res_4_block5_conv_dw_relu_gamma"/>
			</rt_info>
			<output>
				<port id="0" precision="FP32" names="res_4_block5_conv_dw_relu_gamma:0">
					<dim>256</dim>
				</port>
			</output>
		</layer>
		<layer id="213" name="res_4_block5_conv_dw_relu" type="PReLU" version="opset1">
			<rt_info>
				<attribute name="fused_names" version="0" value="res_4_block5_conv_dw_relu"/>
			</rt_info>
			<input>
				<port id="0" precision="FP32">
					<dim>1</dim>
					<dim>256</dim>
					<dim>14</dim>
					<dim>14</dim>
				</port>
				<port id="1" precision="FP32">
					<dim>256</dim>
				</port>
			</input>
			<output>
				<port id="2" precision="FP32" names="res_4_block5_conv_dw_relu:0">
					<dim>1</dim>
					<dim>256</dim>
					<dim>14</dim>
					<dim>14</dim>
				</port>
			</output>
		</layer>
		<layer id="214" name="res_4_block5_conv_proj_batchnorm/mean/Fused_Mul__copy" type="Const" version="opset1">
			<data element_type="f32" shape="128, 256, 1, 1" offset="2107144" size="131072"/>
			<rt_info>
				<attribute name="fused_names" version="0" value="res_4_block5_conv_proj_batchnorm/mean/Fused_Mul__copy"/>
			</rt_info>
			<output>
				<port id="0" precision="FP32" names="res_4_block5_conv_proj_conv2d_weight:0">
					<dim>128</dim>
					<dim>256</dim>
					<dim>1</dim>
					<dim>1</dim>
				</port>
			</output>
		</layer>
		<layer id="215" name="res_4_block5_conv_proj_conv2d" type="Convolution" version="opset1">
			<data strides="1, 1" dilations="1, 1" pads_begin="0, 0" pads_end="0, 0" auto_pad="explicit"/>
			<rt_info>
				<attribute name="fused_names" version="0" value="res_4_block5_conv_proj_conv2d"/>
			</rt_info>
			<input>
				<port id="0" precision="FP32">
					<dim>1</dim>
					<dim>256</dim>
					<dim>14</dim>
					<dim>14</dim>
				</port>
				<port id="1" precision="FP32">
					<dim>128</dim>
					<dim>256</dim>
					<dim>1</dim>
					<dim>1</dim>
				</port>
			</input>
			<output>
				<port id="2" precision="FP32">
					<dim>1</dim>
					<dim>128</dim>
					<dim>14</dim>
					<dim>14</dim>
				</port>
			</output>
		</layer>
		<layer id="216" name="data_add_92609265" type="Const" version="opset1">
			<data element_type="f32" shape="1, 128, 1, 1" offset="2238216" size="512"/>
			<rt_info>
				<attribute name="fused_names" version="0" value="data_add_92609265"/>
			</rt_info>
			<output>
				<port id="0" precision="FP32">
					<dim>1</dim>
					<dim>128</dim>
					<dim>1</dim>
					<dim>1</dim>
				</port>
			</output>
		</layer>
		<layer id="217" name="res_4_block5_conv_proj_batchnorm/variance/Fused_Add_" type="Add" version="opset1">
			<data auto_broadcast="numpy"/>
			<rt_info>
				<attribute name="fused_names" version="0" value="res_4_block5_conv_proj_batchnorm/variance/Fused_Add_"/>
			</rt_info>
			<input>
				<port id="0" precision="FP32">
					<dim>1</dim>
					<dim>128</dim>
					<dim>14</dim>
					<dim>14</dim>
				</port>
				<port id="1" precision="FP32">
					<dim>1</dim>
					<dim>128</dim>
					<dim>1</dim>
					<dim>1</dim>
				</port>
			</input>
			<output>
				<port id="2" precision="FP32" names="res_4_block5_conv_proj_batchnorm:0">
					<dim>1</dim>
					<dim>128</dim>
					<dim>14</dim>
					<dim>14</dim>
				</port>
			</output>
		</layer>
		<layer id="218" name="_plus9" type="Add" version="opset1">
			<data auto_broadcast="numpy"/>
			<rt_info>
				<attribute name="fused_names" version="0" value="_plus9"/>
			</rt_info>
			<input>
				<port id="0" precision="FP32">
					<dim>1</dim>
					<dim>128</dim>
					<dim>14</dim>
					<dim>14</dim>
				</port>
				<port id="1" precision="FP32">
					<dim>1</dim>
					<dim>128</dim>
					<dim>14</dim>
					<dim>14</dim>
				</port>
			</input>
			<output>
				<port id="2" precision="FP32" names="_plus9:0">
					<dim>1</dim>
					<dim>128</dim>
					<dim>14</dim>
					<dim>14</dim>
				</port>
			</output>
		</layer>
		<layer id="219" name="dconv_45_conv_sep_batchnorm/mean/Fused_Mul__copy" type="Const" version="opset1">
			<data element_type="f32" shape="512, 128, 1, 1" offset="2238728" size="262144"/>
			<rt_info>
				<attribute name="fused_names" version="0" value="dconv_45_conv_sep_batchnorm/mean/Fused_Mul__copy"/>
			</rt_info>
			<output>
				<port id="0" precision="FP32" names="dconv_45_conv_sep_conv2d_weight:0">
					<dim>512</dim>
					<dim>128</dim>
					<dim>1</dim>
					<dim>1</dim>
				</port>
			</output>
		</layer>
		<layer id="220" name="dconv_45_conv_sep_conv2d" type="Convolution" version="opset1">
			<data strides="1, 1" dilations="1, 1" pads_begin="0, 0" pads_end="0, 0" auto_pad="explicit"/>
			<rt_info>
				<attribute name="fused_names" version="0" value="dconv_45_conv_sep_conv2d"/>
			</rt_info>
			<input>
				<port id="0" precision="FP32">
					<dim>1</dim>
					<dim>128</dim>
					<dim>14</dim>
					<dim>14</dim>
				</port>
				<port id="1" precision="FP32">
					<dim>512</dim>
					<dim>128</dim>
					<dim>1</dim>
					<dim>1</dim>
				</port>
			</input>
			<output>
				<port id="2" precision="FP32">
					<dim>1</dim>
					<dim>512</dim>
					<dim>14</dim>
					<dim>14</dim>
				</port>
			</output>
		</layer>
		<layer id="221" name="data_add_92689273" type="Const" version="opset1">
			<data element_type="f32" shape="1, 512, 1, 1" offset="2500872" size="2048"/>
			<rt_info>
				<attribute name="fused_names" version="0" value="data_add_92689273"/>
			</rt_info>
			<output>
				<port id="0" precision="FP32">
					<dim>1</dim>
					<dim>512</dim>
					<dim>1</dim>
					<dim>1</dim>
				</port>
			</output>
		</layer>
		<layer id="222" name="dconv_45_conv_sep_batchnorm/variance/Fused_Add_" type="Add" version="opset1">
			<data auto_broadcast="numpy"/>
			<rt_info>
				<attribute name="fused_names" version="0" value="dconv_45_conv_sep_batchnorm/variance/Fused_Add_"/>
			</rt_info>
			<input>
				<port id="0" precision="FP32">
					<dim>1</dim>
					<dim>512</dim>
					<dim>14</dim>
					<dim>14</dim>
				</port>
				<port id="1" precision="FP32">
					<dim>1</dim>
					<dim>512</dim>
					<dim>1</dim>
					<dim>1</dim>
				</port>
			</input>
			<output>
				<port id="2" precision="FP32" names="dconv_45_conv_sep_batchnorm:0">
					<dim>1</dim>
					<dim>512</dim>
					<dim>14</dim>
					<dim>14</dim>
				</port>
			</output>
		</layer>
		<layer id="223" name="dconv_45_conv_sep_relu_gamma" type="Const" version="opset1">
			<data element_type="f32" shape="512" offset="2502920" size="2048"/>
			<rt_info>
				<attribute name="fused_names" version="0" value="dconv_45_conv_sep_relu_gamma"/>
			</rt_info>
			<output>
				<port id="0" precision="FP32" names="dconv_45_conv_sep_relu_gamma:0">
					<dim>512</dim>
				</port>
			</output>
		</layer>
		<layer id="224" name="dconv_45_conv_sep_relu" type="PReLU" version="opset1">
			<rt_info>
				<attribute name="fused_names" version="0" value="dconv_45_conv_sep_relu"/>
			</rt_info>
			<input>
				<port id="0" precision="FP32">
					<dim>1</dim>
					<dim>512</dim>
					<dim>14</dim>
					<dim>14</dim>
				</port>
				<port id="1" precision="FP32">
					<dim>512</dim>
				</port>
			</input>
			<output>
				<port id="2" precision="FP32" names="dconv_45_conv_sep_relu:0">
					<dim>1</dim>
					<dim>512</dim>
					<dim>14</dim>
					<dim>14</dim>
				</port>
			</output>
		</layer>
		<layer id="225" name="dconv_45_conv_dw_batchnorm/mean/Fused_Mul__copy" type="Const" version="opset1">
			<data element_type="f32" shape="512, 1, 1, 3, 3" offset="2504968" size="18432"/>
			<rt_info>
				<attribute name="fused_names" version="0" value="dconv_45_conv_dw_batchnorm/mean/Fused_Mul__copy"/>
			</rt_info>
			<output>
				<port id="0" precision="FP32" names="dconv_45_conv_dw_conv2d_weight:0">
					<dim>512</dim>
					<dim>1</dim>
					<dim>1</dim>
					<dim>3</dim>
					<dim>3</dim>
				</port>
			</output>
		</layer>
		<layer id="226" name="dconv_45_conv_dw_conv2d" type="GroupConvolution" version="opset1">
			<data strides="2, 2" pads_begin="1, 1" pads_end="1, 1" dilations="1, 1" auto_pad="explicit"/>
			<rt_info>
				<attribute name="fused_names" version="0" value="dconv_45_conv_dw_conv2d"/>
			</rt_info>
			<input>
				<port id="0" precision="FP32">
					<dim>1</dim>
					<dim>512</dim>
					<dim>14</dim>
					<dim>14</dim>
				</port>
				<port id="1" precision="FP32">
					<dim>512</dim>
					<dim>1</dim>
					<dim>1</dim>
					<dim>3</dim>
					<dim>3</dim>
				</port>
			</input>
			<output>
				<port id="2" precision="FP32">
					<dim>1</dim>
					<dim>512</dim>
					<dim>7</dim>
					<dim>7</dim>
				</port>
			</output>
		</layer>
		<layer id="227" name="data_add_92769281" type="Const" version="opset1">
			<data element_type="f32" shape="1, 512, 1, 1" offset="2523400" size="2048"/>
			<rt_info>
				<attribute name="fused_names" version="0" value="data_add_92769281"/>
			</rt_info>
			<output>
				<port id="0" precision="FP32">
					<dim>1</dim>
					<dim>512</dim>
					<dim>1</dim>
					<dim>1</dim>
				</port>
			</output>
		</layer>
		<layer id="228" name="dconv_45_conv_dw_batchnorm/variance/Fused_Add_" type="Add" version="opset1">
			<data auto_broadcast="numpy"/>
			<rt_info>
				<attribute name="fused_names" version="0" value="dconv_45_conv_dw_batchnorm/variance/Fused_Add_"/>
			</rt_info>
			<input>
				<port id="0" precision="FP32">
					<dim>1</dim>
					<dim>512</dim>
					<dim>7</dim>
					<dim>7</dim>
				</port>
				<port id="1" precision="FP32">
					<dim>1</dim>
					<dim>512</dim>
					<dim>1</dim>
					<dim>1</dim>
				</port>
			</input>
			<output>
				<port id="2" precision="FP32" names="dconv_45_conv_dw_batchnorm:0">
					<dim>1</dim>
					<dim>512</dim>
					<dim>7</dim>
					<dim>7</dim>
				</port>
			</output>
		</layer>
		<layer id="229" name="dconv_45_conv_dw_relu_gamma" type="Const" version="opset1">
			<data element_type="f32" shape="512" offset="2525448" size="2048"/>
			<rt_info>
				<attribute name="fused_names" version="0" value="dconv_45_conv_dw_relu_gamma"/>
			</rt_info>
			<output>
				<port id="0" precision="FP32" names="dconv_45_conv_dw_relu_gamma:0">
					<dim>512</dim>
				</port>
			</output>
		</layer>
		<layer id="230" name="dconv_45_conv_dw_relu" type="PReLU" version="opset1">
			<rt_info>
				<attribute name="fused_names" version="0" value="dconv_45_conv_dw_relu"/>
			</rt_info>
			<input>
				<port id="0" precision="FP32">
					<dim>1</dim>
					<dim>512</dim>
					<dim>7</dim>
					<dim>7</dim>
				</port>
				<port id="1" precision="FP32">
					<dim>512</dim>
				</port>
			</input>
			<output>
				<port id="2" precision="FP32" names="dconv_45_conv_dw_relu:0">
					<dim>1</dim>
					<dim>512</dim>
					<dim>7</dim>
					<dim>7</dim>
				</port>
			</output>
		</layer>
		<layer id="231" name="dconv_45_conv_proj_batchnorm/mean/Fused_Mul__copy" type="Const" version="opset1">
			<data element_type="f32" shape="128, 512, 1, 1" offset="2527496" size="262144"/>
			<rt_info>
				<attribute name="fused_names" version="0" value="dconv_45_conv_proj_batchnorm/mean/Fused_Mul__copy"/>
			</rt_info>
			<output>
				<port id="0" precision="FP32" names="dconv_45_conv_proj_conv2d_weight:0">
					<dim>128</dim>
					<dim>512</dim>
					<dim>1</dim>
					<dim>1</dim>
				</port>
			</output>
		</layer>
		<layer id="232" name="dconv_45_conv_proj_conv2d" type="Convolution" version="opset1">
			<data strides="1, 1" dilations="1, 1" pads_begin="0, 0" pads_end="0, 0" auto_pad="explicit"/>
			<rt_info>
				<attribute name="fused_names" version="0" value="dconv_45_conv_proj_conv2d"/>
			</rt_info>
			<input>
				<port id="0" precision="FP32">
					<dim>1</dim>
					<dim>512</dim>
					<dim>7</dim>
					<dim>7</dim>
				</port>
				<port id="1" precision="FP32">
					<dim>128</dim>
					<dim>512</dim>
					<dim>1</dim>
					<dim>1</dim>
				</port>
			</input>
			<output>
				<port id="2" precision="FP32">
					<dim>1</dim>
					<dim>128</dim>
					<dim>7</dim>
					<dim>7</dim>
				</port>
			</output>
		</layer>
		<layer id="233" name="data_add_92849289" type="Const" version="opset1">
			<data element_type="f32" shape="1, 128, 1, 1" offset="2789640" size="512"/>
			<rt_info>
				<attribute name="fused_names" version="0" value="data_add_92849289"/>
			</rt_info>
			<output>
				<port id="0" precision="FP32">
					<dim>1</dim>
					<dim>128</dim>
					<dim>1</dim>
					<dim>1</dim>
				</port>
			</output>
		</layer>
		<layer id="234" name="dconv_45_conv_proj_batchnorm/variance/Fused_Add_" type="Add" version="opset1">
			<data auto_broadcast="numpy"/>
			<rt_info>
				<attribute name="fused_names" version="0" value="dconv_45_conv_proj_batchnorm/variance/Fused_Add_"/>
			</rt_info>
			<input>
				<port id="0" precision="FP32">
					<dim>1</dim>
					<dim>128</dim>
					<dim>7</dim>
					<dim>7</dim>
				</port>
				<port id="1" precision="FP32">
					<dim>1</dim>
					<dim>128</dim>
					<dim>1</dim>
					<dim>1</dim>
				</port>
			</input>
			<output>
				<port id="2" precision="FP32" names="dconv_45_conv_proj_batchnorm:0">
					<dim>1</dim>
					<dim>128</dim>
					<dim>7</dim>
					<dim>7</dim>
				</port>
			</output>
		</layer>
		<layer id="235" name="res_5_block0_conv_sep_batchnorm/mean/Fused_Mul__copy" type="Const" version="opset1">
			<data element_type="f32" shape="256, 128, 1, 1" offset="2790152" size="131072"/>
			<rt_info>
				<attribute name="fused_names" version="0" value="res_5_block0_conv_sep_batchnorm/mean/Fused_Mul__copy"/>
			</rt_info>
			<output>
				<port id="0" precision="FP32" names="res_5_block0_conv_sep_conv2d_weight:0">
					<dim>256</dim>
					<dim>128</dim>
					<dim>1</dim>
					<dim>1</dim>
				</port>
			</output>
		</layer>
		<layer id="236" name="res_5_block0_conv_sep_conv2d" type="Convolution" version="opset1">
			<data strides="1, 1" dilations="1, 1" pads_begin="0, 0" pads_end="0, 0" auto_pad="explicit"/>
			<rt_info>
				<attribute name="fused_names" version="0" value="res_5_block0_conv_sep_conv2d"/>
			</rt_info>
			<input>
				<port id="0" precision="FP32">
					<dim>1</dim>
					<dim>128</dim>
					<dim>7</dim>
					<dim>7</dim>
				</port>
				<port id="1" precision="FP32">
					<dim>256</dim>
					<dim>128</dim>
					<dim>1</dim>
					<dim>1</dim>
				</port>
			</input>
			<output>
				<port id="2" precision="FP32">
					<dim>1</dim>
					<dim>256</dim>
					<dim>7</dim>
					<dim>7</dim>
				</port>
			</output>
		</layer>
		<layer id="237" name="data_add_92929297" type="Const" version="opset1">
			<data element_type="f32" shape="1, 256, 1, 1" offset="2921224" size="1024"/>
			<rt_info>
				<attribute name="fused_names" version="0" value="data_add_92929297"/>
			</rt_info>
			<output>
				<port id="0" precision="FP32">
					<dim>1</dim>
					<dim>256</dim>
					<dim>1</dim>
					<dim>1</dim>
				</port>
			</output>
		</layer>
		<layer id="238" name="res_5_block0_conv_sep_batchnorm/variance/Fused_Add_" type="Add" version="opset1">
			<data auto_broadcast="numpy"/>
			<rt_info>
				<attribute name="fused_names" version="0" value="res_5_block0_conv_sep_batchnorm/variance/Fused_Add_"/>
			</rt_info>
			<input>
				<port id="0" precision="FP32">
					<dim>1</dim>
					<dim>256</dim>
					<dim>7</dim>
					<dim>7</dim>
				</port>
				<port id="1" precision="FP32">
					<dim>1</dim>
					<dim>256</dim>
					<dim>1</dim>
					<dim>1</dim>
				</port>
			</input>
			<output>
				<port id="2" precision="FP32" names="res_5_block0_conv_sep_batchnorm:0">
					<dim>1</dim>
					<dim>256</dim>
					<dim>7</dim>
					<dim>7</dim>
				</port>
			</output>
		</layer>
		<layer id="239" name="res_5_block0_conv_sep_relu_gamma" type="Const" version="opset1">
			<data element_type="f32" shape="256" offset="2922248" size="1024"/>
			<rt_info>
				<attribute name="fused_names" version="0" value="res_5_block0_conv_sep_relu_gamma"/>
			</rt_info>
			<output>
				<port id="0" precision="FP32" names="res_5_block0_conv_sep_relu_gamma:0">
					<dim>256</dim>
				</port>
			</output>
		</layer>
		<layer id="240" name="res_5_block0_conv_sep_relu" type="PReLU" version="opset1">
			<rt_info>
				<attribute name="fused_names" version="0" value="res_5_block0_conv_sep_relu"/>
			</rt_info>
			<input>
				<port id="0" precision="FP32">
					<dim>1</dim>
					<dim>256</dim>
					<dim>7</dim>
					<dim>7</dim>
				</port>
				<port id="1" precision="FP32">
					<dim>256</dim>
				</port>
			</input>
			<output>
				<port id="2" precision="FP32" names="res_5_block0_conv_sep_relu:0">
					<dim>1</dim>
					<dim>256</dim>
					<dim>7</dim>
					<dim>7</dim>
				</port>
			</output>
		</layer>
		<layer id="241" name="res_5_block0_conv_dw_batchnorm/mean/Fused_Mul__copy" type="Const" version="opset1">
			<data element_type="f32" shape="256, 1, 1, 3, 3" offset="2923272" size="9216"/>
			<rt_info>
				<attribute name="fused_names" version="0" value="res_5_block0_conv_dw_batchnorm/mean/Fused_Mul__copy"/>
			</rt_info>
			<output>
				<port id="0" precision="FP32" names="res_5_block0_conv_dw_conv2d_weight:0">
					<dim>256</dim>
					<dim>1</dim>
					<dim>1</dim>
					<dim>3</dim>
					<dim>3</dim>
				</port>
			</output>
		</layer>
		<layer id="242" name="res_5_block0_conv_dw_conv2d" type="GroupConvolution" version="opset1">
			<data strides="1, 1" pads_begin="1, 1" pads_end="1, 1" dilations="1, 1" auto_pad="explicit"/>
			<rt_info>
				<attribute name="fused_names" version="0" value="res_5_block0_conv_dw_conv2d"/>
			</rt_info>
			<input>
				<port id="0" precision="FP32">
					<dim>1</dim>
					<dim>256</dim>
					<dim>7</dim>
					<dim>7</dim>
				</port>
				<port id="1" precision="FP32">
					<dim>256</dim>
					<dim>1</dim>
					<dim>1</dim>
					<dim>3</dim>
					<dim>3</dim>
				</port>
			</input>
			<output>
				<port id="2" precision="FP32">
					<dim>1</dim>
					<dim>256</dim>
					<dim>7</dim>
					<dim>7</dim>
				</port>
			</output>
		</layer>
		<layer id="243" name="data_add_93009305" type="Const" version="opset1">
			<data element_type="f32" shape="1, 256, 1, 1" offset="2932488" size="1024"/>
			<rt_info>
				<attribute name="fused_names" version="0" value="data_add_93009305"/>
			</rt_info>
			<output>
				<port id="0" precision="FP32">
					<dim>1</dim>
					<dim>256</dim>
					<dim>1</dim>
					<dim>1</dim>
				</port>
			</output>
		</layer>
		<layer id="244" name="res_5_block0_conv_dw_batchnorm/variance/Fused_Add_" type="Add" version="opset1">
			<data auto_broadcast="numpy"/>
			<rt_info>
				<attribute name="fused_names" version="0" value="res_5_block0_conv_dw_batchnorm/variance/Fused_Add_"/>
			</rt_info>
			<input>
				<port id="0" precision="FP32">
					<dim>1</dim>
					<dim>256</dim>
					<dim>7</dim>
					<dim>7</dim>
				</port>
				<port id="1" precision="FP32">
					<dim>1</dim>
					<dim>256</dim>
					<dim>1</dim>
					<dim>1</dim>
				</port>
			</input>
			<output>
				<port id="2" precision="FP32" names="res_5_block0_conv_dw_batchnorm:0">
					<dim>1</dim>
					<dim>256</dim>
					<dim>7</dim>
					<dim>7</dim>
				</port>
			</output>
		</layer>
		<layer id="245" name="res_5_block0_conv_dw_relu_gamma" type="Const" version="opset1">
			<data element_type="f32" shape="256" offset="2933512" size="1024"/>
			<rt_info>
				<attribute name="fused_names" version="0" value="res_5_block0_conv_dw_relu_gamma"/>
			</rt_info>
			<output>
				<port id="0" precision="FP32" names="res_5_block0_conv_dw_relu_gamma:0">
					<dim>256</dim>
				</port>
			</output>
		</layer>
		<layer id="246" name="res_5_block0_conv_dw_relu" type="PReLU" version="opset1">
			<rt_info>
				<attribute name="fused_names" version="0" value="res_5_block0_conv_dw_relu"/>
			</rt_info>
			<input>
				<port id="0" precision="FP32">
					<dim>1</dim>
					<dim>256</dim>
					<dim>7</dim>
					<dim>7</dim>
				</port>
				<port id="1" precision="FP32">
					<dim>256</dim>
				</port>
			</input>
			<output>
				<port id="2" precision="FP32" names="res_5_block0_conv_dw_relu:0">
					<dim>1</dim>
					<dim>256</dim>
					<dim>7</dim>
					<dim>7</dim>
				</port>
			</output>
		</layer>
		<layer id="247" name="res_5_block0_conv_proj_batchnorm/mean/Fused_Mul__copy" type="Const" version="opset1">
			<data element_type="f32" shape="128, 256, 1, 1" offset="2934536" size="131072"/>
			<rt_info>
				<attribute name="fused_names" version="0" value="res_5_block0_conv_proj_batchnorm/mean/Fused_Mul__copy"/>
			</rt_info>
			<output>
				<port id="0" precision="FP32" names="res_5_block0_conv_proj_conv2d_weight:0">
					<dim>128</dim>
					<dim>256</dim>
					<dim>1</dim>
					<dim>1</dim>
				</port>
			</output>
		</layer>
		<layer id="248" name="res_5_block0_conv_proj_conv2d" type="Convolution" version="opset1">
			<data strides="1, 1" dilations="1, 1" pads_begin="0, 0" pads_end="0, 0" auto_pad="explicit"/>
			<rt_info>
				<attribute name="fused_names" version="0" value="res_5_block0_conv_proj_conv2d"/>
			</rt_info>
			<input>
				<port id="0" precision="FP32">
					<dim>1</dim>
					<dim>256</dim>
					<dim>7</dim>
					<dim>7</dim>
				</port>
				<port id="1" precision="FP32">
					<dim>128</dim>
					<dim>256</dim>
					<dim>1</dim>
					<dim>1</dim>
				</port>
			</input>
			<output>
				<port id="2" precision="FP32">
					<dim>1</dim>
					<dim>128</dim>
					<dim>7</dim>
					<dim>7</dim>
				</port>
			</output>
		</layer>
		<layer id="249" name="data_add_93089313" type="Const" version="opset1">
			<data element_type="f32" shape="1, 128, 1, 1" offset="3065608" size="512"/>
			<rt_info>
				<attribute name="fused_names" version="0" value="data_add_93089313"/>
			</rt_info>
			<output>
				<port id="0" precision="FP32">
					<dim>1</dim>
					<dim>128</dim>
					<dim>1</dim>
					<dim>1</dim>
				</port>
			</output>
		</layer>
		<layer id="250" name="res_5_block0_conv_proj_batchnorm/variance/Fused_Add_" type="Add" version="opset1">
			<data auto_broadcast="numpy"/>
			<rt_info>
				<attribute name="fused_names" version="0" value="res_5_block0_conv_proj_batchnorm/variance/Fused_Add_"/>
			</rt_info>
			<input>
				<port id="0" precision="FP32">
					<dim>1</dim>
					<dim>128</dim>
					<dim>7</dim>
					<dim>7</dim>
				</port>
				<port id="1" precision="FP32">
					<dim>1</dim>
					<dim>128</dim>
					<dim>1</dim>
					<dim>1</dim>
				</port>
			</input>
			<output>
				<port id="2" precision="FP32" names="res_5_block0_conv_proj_batchnorm:0">
					<dim>1</dim>
					<dim>128</dim>
					<dim>7</dim>
					<dim>7</dim>
				</port>
			</output>
		</layer>
		<layer id="251" name="_plus10" type="Add" version="opset1">
			<data auto_broadcast="numpy"/>
			<rt_info>
				<attribute name="fused_names" version="0" value="_plus10"/>
			</rt_info>
			<input>
				<port id="0" precision="FP32">
					<dim>1</dim>
					<dim>128</dim>
					<dim>7</dim>
					<dim>7</dim>
				</port>
				<port id="1" precision="FP32">
					<dim>1</dim>
					<dim>128</dim>
					<dim>7</dim>
					<dim>7</dim>
				</port>
			</input>
			<output>
				<port id="2" precision="FP32" names="_plus10:0">
					<dim>1</dim>
					<dim>128</dim>
					<dim>7</dim>
					<dim>7</dim>
				</port>
			</output>
		</layer>
		<layer id="252" name="res_5_block1_conv_sep_batchnorm/mean/Fused_Mul__copy" type="Const" version="opset1">
			<data element_type="f32" shape="256, 128, 1, 1" offset="3066120" size="131072"/>
			<rt_info>
				<attribute name="fused_names" version="0" value="res_5_block1_conv_sep_batchnorm/mean/Fused_Mul__copy"/>
			</rt_info>
			<output>
				<port id="0" precision="FP32" names="res_5_block1_conv_sep_conv2d_weight:0">
					<dim>256</dim>
					<dim>128</dim>
					<dim>1</dim>
					<dim>1</dim>
				</port>
			</output>
		</layer>
		<layer id="253" name="res_5_block1_conv_sep_conv2d" type="Convolution" version="opset1">
			<data strides="1, 1" dilations="1, 1" pads_begin="0, 0" pads_end="0, 0" auto_pad="explicit"/>
			<rt_info>
				<attribute name="fused_names" version="0" value="res_5_block1_conv_sep_conv2d"/>
			</rt_info>
			<input>
				<port id="0" precision="FP32">
					<dim>1</dim>
					<dim>128</dim>
					<dim>7</dim>
					<dim>7</dim>
				</port>
				<port id="1" precision="FP32">
					<dim>256</dim>
					<dim>128</dim>
					<dim>1</dim>
					<dim>1</dim>
				</port>
			</input>
			<output>
				<port id="2" precision="FP32">
					<dim>1</dim>
					<dim>256</dim>
					<dim>7</dim>
					<dim>7</dim>
				</port>
			</output>
		</layer>
		<layer id="254" name="data_add_93169321" type="Const" version="opset1">
			<data element_type="f32" shape="1, 256, 1, 1" offset="3197192" size="1024"/>
			<rt_info>
				<attribute name="fused_names" version="0" value="data_add_93169321"/>
			</rt_info>
			<output>
				<port id="0" precision="FP32">
					<dim>1</dim>
					<dim>256</dim>
					<dim>1</dim>
					<dim>1</dim>
				</port>
			</output>
		</layer>
		<layer id="255" name="res_5_block1_conv_sep_batchnorm/variance/Fused_Add_" type="Add" version="opset1">
			<data auto_broadcast="numpy"/>
			<rt_info>
				<attribute name="fused_names" version="0" value="res_5_block1_conv_sep_batchnorm/variance/Fused_Add_"/>
			</rt_info>
			<input>
				<port id="0" precision="FP32">
					<dim>1</dim>
					<dim>256</dim>
					<dim>7</dim>
					<dim>7</dim>
				</port>
				<port id="1" precision="FP32">
					<dim>1</dim>
					<dim>256</dim>
					<dim>1</dim>
					<dim>1</dim>
				</port>
			</input>
			<output>
				<port id="2" precision="FP32" names="res_5_block1_conv_sep_batchnorm:0">
					<dim>1</dim>
					<dim>256</dim>
					<dim>7</dim>
					<dim>7</dim>
				</port>
			</output>
		</layer>
		<layer id="256" name="res_5_block1_conv_sep_relu_gamma" type="Const" version="opset1">
			<data element_type="f32" shape="256" offset="3198216" size="1024"/>
			<rt_info>
				<attribute name="fused_names" version="0" value="res_5_block1_conv_sep_relu_gamma"/>
			</rt_info>
			<output>
				<port id="0" precision="FP32" names="res_5_block1_conv_sep_relu_gamma:0">
					<dim>256</dim>
				</port>
			</output>
		</layer>
		<layer id="257" name="res_5_block1_conv_sep_relu" type="PReLU" version="opset1">
			<rt_info>
				<attribute name="fused_names" version="0" value="res_5_block1_conv_sep_relu"/>
			</rt_info>
			<input>
				<port id="0" precision="FP32">
					<dim>1</dim>
					<dim>256</dim>
					<dim>7</dim>
					<dim>7</dim>
				</port>
				<port id="1" precision="FP32">
					<dim>256</dim>
				</port>
			</input>
			<output>
				<port id="2" precision="FP32" names="res_5_block1_conv_sep_relu:0">
					<dim>1</dim>
					<dim>256</dim>
					<dim>7</dim>
					<dim>7</dim>
				</port>
			</output>
		</layer>
		<layer id="258" name="res_5_block1_conv_dw_batchnorm/mean/Fused_Mul__copy" type="Const" version="opset1">
			<data element_type="f32" shape="256, 1, 1, 3, 3" offset="3199240" size="9216"/>
			<rt_info>
				<attribute name="fused_names" version="0" value="res_5_block1_conv_dw_batchnorm/mean/Fused_Mul__copy"/>
			</rt_info>
			<output>
				<port id="0" precision="FP32" names="res_5_block1_conv_dw_conv2d_weight:0">
					<dim>256</dim>
					<dim>1</dim>
					<dim>1</dim>
					<dim>3</dim>
					<dim>3</dim>
				</port>
			</output>
		</layer>
		<layer id="259" name="res_5_block1_conv_dw_conv2d" type="GroupConvolution" version="opset1">
			<data strides="1, 1" pads_begin="1, 1" pads_end="1, 1" dilations="1, 1" auto_pad="explicit"/>
			<rt_info>
				<attribute name="fused_names" version="0" value="res_5_block1_conv_dw_conv2d"/>
			</rt_info>
			<input>
				<port id="0" precision="FP32">
					<dim>1</dim>
					<dim>256</dim>
					<dim>7</dim>
					<dim>7</dim>
				</port>
				<port id="1" precision="FP32">
					<dim>256</dim>
					<dim>1</dim>
					<dim>1</dim>
					<dim>3</dim>
					<dim>3</dim>
				</port>
			</input>
			<output>
				<port id="2" precision="FP32">
					<dim>1</dim>
					<dim>256</dim>
					<dim>7</dim>
					<dim>7</dim>
				</port>
			</output>
		</layer>
		<layer id="260" name="data_add_93249329" type="Const" version="opset1">
			<data element_type="f32" shape="1, 256, 1, 1" offset="3208456" size="1024"/>
			<rt_info>
				<attribute name="fused_names" version="0" value="data_add_93249329"/>
			</rt_info>
			<output>
				<port id="0" precision="FP32">
					<dim>1</dim>
					<dim>256</dim>
					<dim>1</dim>
					<dim>1</dim>
				</port>
			</output>
		</layer>
		<layer id="261" name="res_5_block1_conv_dw_batchnorm/variance/Fused_Add_" type="Add" version="opset1">
			<data auto_broadcast="numpy"/>
			<rt_info>
				<attribute name="fused_names" version="0" value="res_5_block1_conv_dw_batchnorm/variance/Fused_Add_"/>
			</rt_info>
			<input>
				<port id="0" precision="FP32">
					<dim>1</dim>
					<dim>256</dim>
					<dim>7</dim>
					<dim>7</dim>
				</port>
				<port id="1" precision="FP32">
					<dim>1</dim>
					<dim>256</dim>
					<dim>1</dim>
					<dim>1</dim>
				</port>
			</input>
			<output>
				<port id="2" precision="FP32" names="res_5_block1_conv_dw_batchnorm:0">
					<dim>1</dim>
					<dim>256</dim>
					<dim>7</dim>
					<dim>7</dim>
				</port>
			</output>
		</layer>
		<layer id="262" name="res_5_block1_conv_dw_relu_gamma" type="Const" version="opset1">
			<data element_type="f32" shape="256" offset="3209480" size="1024"/>
			<rt_info>
				<attribute name="fused_names" version="0" value="res_5_block1_conv_dw_relu_gamma"/>
			</rt_info>
			<output>
				<port id="0" precision="FP32" names="res_5_block1_conv_dw_relu_gamma:0">
					<dim>256</dim>
				</port>
			</output>
		</layer>
		<layer id="263" name="res_5_block1_conv_dw_relu" type="PReLU" version="opset1">
			<rt_info>
				<attribute name="fused_names" version="0" value="res_5_block1_conv_dw_relu"/>
			</rt_info>
			<input>
				<port id="0" precision="FP32">
					<dim>1</dim>
					<dim>256</dim>
					<dim>7</dim>
					<dim>7</dim>
				</port>
				<port id="1" precision="FP32">
					<dim>256</dim>
				</port>
			</input>
			<output>
				<port id="2" precision="FP32" names="res_5_block1_conv_dw_relu:0">
					<dim>1</dim>
					<dim>256</dim>
					<dim>7</dim>
					<dim>7</dim>
				</port>
			</output>
		</layer>
		<layer id="264" name="res_5_block1_conv_proj_batchnorm/mean/Fused_Mul__copy" type="Const" version="opset1">
			<data element_type="f32" shape="128, 256, 1, 1" offset="3210504" size="131072"/>
			<rt_info>
				<attribute name="fused_names" version="0" value="res_5_block1_conv_proj_batchnorm/mean/Fused_Mul__copy"/>
			</rt_info>
			<output>
				<port id="0" precision="FP32" names="res_5_block1_conv_proj_conv2d_weight:0">
					<dim>128</dim>
					<dim>256</dim>
					<dim>1</dim>
					<dim>1</dim>
				</port>
			</output>
		</layer>
		<layer id="265" name="res_5_block1_conv_proj_conv2d" type="Convolution" version="opset1">
			<data strides="1, 1" dilations="1, 1" pads_begin="0, 0" pads_end="0, 0" auto_pad="explicit"/>
			<rt_info>
				<attribute name="fused_names" version="0" value="res_5_block1_conv_proj_conv2d"/>
			</rt_info>
			<input>
				<port id="0" precision="FP32">
					<dim>1</dim>
					<dim>256</dim>
					<dim>7</dim>
					<dim>7</dim>
				</port>
				<port id="1" precision="FP32">
					<dim>128</dim>
					<dim>256</dim>
					<dim>1</dim>
					<dim>1</dim>
				</port>
			</input>
			<output>
				<port id="2" precision="FP32">
					<dim>1</dim>
					<dim>128</dim>
					<dim>7</dim>
					<dim>7</dim>
				</port>
			</output>
		</layer>
		<layer id="266" name="data_add_93329337" type="Const" version="opset1">
			<data element_type="f32" shape="1, 128, 1, 1" offset="3341576" size="512"/>
			<rt_info>
				<attribute name="fused_names" version="0" value="data_add_93329337"/>
			</rt_info>
			<output>
				<port id="0" precision="FP32">
					<dim>1</dim>
					<dim>128</dim>
					<dim>1</dim>
					<dim>1</dim>
				</port>
			</output>
		</layer>
		<layer id="267" name="res_5_block1_conv_proj_batchnorm/variance/Fused_Add_" type="Add" version="opset1">
			<data auto_broadcast="numpy"/>
			<rt_info>
				<attribute name="fused_names" version="0" value="res_5_block1_conv_proj_batchnorm/variance/Fused_Add_"/>
			</rt_info>
			<input>
				<port id="0" precision="FP32">
					<dim>1</dim>
					<dim>128</dim>
					<dim>7</dim>
					<dim>7</dim>
				</port>
				<port id="1" precision="FP32">
					<dim>1</dim>
					<dim>128</dim>
					<dim>1</dim>
					<dim>1</dim>
				</port>
			</input>
			<output>
				<port id="2" precision="FP32" names="res_5_block1_conv_proj_batchnorm:0">
					<dim>1</dim>
					<dim>128</dim>
					<dim>7</dim>
					<dim>7</dim>
				</port>
			</output>
		</layer>
		<layer id="268" name="_plus11" type="Add" version="opset1">
			<data auto_broadcast="numpy"/>
			<rt_info>
				<attribute name="fused_names" version="0" value="_plus11"/>
			</rt_info>
			<input>
				<port id="0" precision="FP32">
					<dim>1</dim>
					<dim>128</dim>
					<dim>7</dim>
					<dim>7</dim>
				</port>
				<port id="1" precision="FP32">
					<dim>1</dim>
					<dim>128</dim>
					<dim>7</dim>
					<dim>7</dim>
				</port>
			</input>
			<output>
				<port id="2" precision="FP32" names="_plus11:0">
					<dim>1</dim>
					<dim>128</dim>
					<dim>7</dim>
					<dim>7</dim>
				</port>
			</output>
		</layer>
		<layer id="269" name="conv_6sep_batchnorm/mean/Fused_Mul__copy" type="Const" version="opset1">
			<data element_type="f32" shape="512, 128, 1, 1" offset="3342088" size="262144"/>
			<rt_info>
				<attribute name="fused_names" version="0" value="conv_6sep_batchnorm/mean/Fused_Mul__copy"/>
			</rt_info>
			<output>
				<port id="0" precision="FP32" names="conv_6sep_conv2d_weight:0">
					<dim>512</dim>
					<dim>128</dim>
					<dim>1</dim>
					<dim>1</dim>
				</port>
			</output>
		</layer>
		<layer id="270" name="conv_6sep_conv2d" type="Convolution" version="opset1">
			<data strides="1, 1" dilations="1, 1" pads_begin="0, 0" pads_end="0, 0" auto_pad="explicit"/>
			<rt_info>
				<attribute name="fused_names" version="0" value="conv_6sep_conv2d"/>
			</rt_info>
			<input>
				<port id="0" precision="FP32">
					<dim>1</dim>
					<dim>128</dim>
					<dim>7</dim>
					<dim>7</dim>
				</port>
				<port id="1" precision="FP32">
					<dim>512</dim>
					<dim>128</dim>
					<dim>1</dim>
					<dim>1</dim>
				</port>
			</input>
			<output>
				<port id="2" precision="FP32">
					<dim>1</dim>
					<dim>512</dim>
					<dim>7</dim>
					<dim>7</dim>
				</port>
			</output>
		</layer>
		<layer id="271" name="data_add_93409345" type="Const" version="opset1">
			<data element_type="f32" shape="1, 512, 1, 1" offset="3604232" size="2048"/>
			<rt_info>
				<attribute name="fused_names" version="0" value="data_add_93409345"/>
			</rt_info>
			<output>
				<port id="0" precision="FP32">
					<dim>1</dim>
					<dim>512</dim>
					<dim>1</dim>
					<dim>1</dim>
				</port>
			</output>
		</layer>
		<layer id="272" name="conv_6sep_batchnorm/variance/Fused_Add_" type="Add" version="opset1">
			<data auto_broadcast="numpy"/>
			<rt_info>
				<attribute name="fused_names" version="0" value="conv_6sep_batchnorm/variance/Fused_Add_"/>
			</rt_info>
			<input>
				<port id="0" precision="FP32">
					<dim>1</dim>
					<dim>512</dim>
					<dim>7</dim>
					<dim>7</dim>
				</port>
				<port id="1" precision="FP32">
					<dim>1</dim>
					<dim>512</dim>
					<dim>1</dim>
					<dim>1</dim>
				</port>
			</input>
			<output>
				<port id="2" precision="FP32" names="conv_6sep_batchnorm:0">
					<dim>1</dim>
					<dim>512</dim>
					<dim>7</dim>
					<dim>7</dim>
				</port>
			</output>
		</layer>
		<layer id="273" name="conv_6sep_relu_gamma" type="Const" version="opset1">
			<data element_type="f32" shape="512" offset="3606280" size="2048"/>
			<rt_info>
				<attribute name="fused_names" version="0" value="conv_6sep_relu_gamma"/>
			</rt_info>
			<output>
				<port id="0" precision="FP32" names="conv_6sep_relu_gamma:0">
					<dim>512</dim>
				</port>
			</output>
		</layer>
		<layer id="274" name="conv_6sep_relu" type="PReLU" version="opset1">
			<rt_info>
				<attribute name="fused_names" version="0" value="conv_6sep_relu"/>
			</rt_info>
			<input>
				<port id="0" precision="FP32">
					<dim>1</dim>
					<dim>512</dim>
					<dim>7</dim>
					<dim>7</dim>
				</port>
				<port id="1" precision="FP32">
					<dim>512</dim>
				</port>
			</input>
			<output>
				<port id="2" precision="FP32" names="conv_6sep_relu:0">
					<dim>1</dim>
					<dim>512</dim>
					<dim>7</dim>
					<dim>7</dim>
				</port>
			</output>
		</layer>
		<layer id="275" name="conv_6dw7_7_batchnorm/mean/Fused_Mul__copy" type="Const" version="opset1">
			<data element_type="f32" shape="512, 1, 1, 7, 7" offset="3608328" size="100352"/>
			<rt_info>
				<attribute name="fused_names" version="0" value="conv_6dw7_7_batchnorm/mean/Fused_Mul__copy"/>
			</rt_info>
			<output>
				<port id="0" precision="FP32" names="conv_6dw7_7_conv2d_weight:0">
					<dim>512</dim>
					<dim>1</dim>
					<dim>1</dim>
					<dim>7</dim>
					<dim>7</dim>
				</port>
			</output>
		</layer>
		<layer id="276" name="conv_6dw7_7_conv2d" type="GroupConvolution" version="opset1">
			<data strides="1, 1" pads_begin="0, 0" pads_end="0, 0" dilations="1, 1" auto_pad="explicit"/>
			<rt_info>
				<attribute name="fused_names" version="0" value="conv_6dw7_7_conv2d"/>
			</rt_info>
			<input>
				<port id="0" precision="FP32">
					<dim>1</dim>
					<dim>512</dim>
					<dim>7</dim>
					<dim>7</dim>
				</port>
				<port id="1" precision="FP32">
					<dim>512</dim>
					<dim>1</dim>
					<dim>1</dim>
					<dim>7</dim>
					<dim>7</dim>
				</port>
			</input>
			<output>
				<port id="2" precision="FP32">
					<dim>1</dim>
					<dim>512</dim>
					<dim>1</dim>
					<dim>1</dim>
				</port>
			</output>
		</layer>
		<layer id="277" name="data_add_93489353" type="Const" version="opset1">
			<data element_type="f32" shape="1, 512, 1, 1" offset="3708680" size="2048"/>
			<rt_info>
				<attribute name="fused_names" version="0" value="data_add_93489353"/>
			</rt_info>
			<output>
				<port id="0" precision="FP32">
					<dim>1</dim>
					<dim>512</dim>
					<dim>1</dim>
					<dim>1</dim>
				</port>
			</output>
		</layer>
		<layer id="278" name="conv_6dw7_7_batchnorm/variance/Fused_Add_" type="Add" version="opset1">
			<data auto_broadcast="numpy"/>
			<rt_info>
				<attribute name="fused_names" version="0" value="conv_6dw7_7_batchnorm/variance/Fused_Add_"/>
			</rt_info>
			<input>
				<port id="0" precision="FP32">
					<dim>1</dim>
					<dim>512</dim>
					<dim>1</dim>
					<dim>1</dim>
				</port>
				<port id="1" precision="FP32">
					<dim>1</dim>
					<dim>512</dim>
					<dim>1</dim>
					<dim>1</dim>
				</port>
			</input>
			<output>
				<port id="2" precision="FP32">
					<dim>1</dim>
					<dim>512</dim>
					<dim>1</dim>
					<dim>1</dim>
				</port>
			</output>
		</layer>
		<layer id="279" name="pre_fc1/flatten_fc_input/value" type="Const" version="opset1">
			<data element_type="i64" shape="2" offset="3710728" size="16"/>
			<rt_info>
				<attribute name="fused_names" version="0" value="pre_fc1/flatten_fc_input/value"/>
			</rt_info>
			<output>
				<port id="0" precision="I64">
					<dim>2</dim>
				</port>
			</output>
		</layer>
		<layer id="280" name="pre_fc1/flatten_fc_input" type="Reshape" version="opset1">
			<data special_zero="true"/>
			<rt_info>
				<attribute name="fused_names" version="0" value="pre_fc1/flatten_fc_input"/>
			</rt_info>
			<input>
				<port id="0" precision="FP32">
					<dim>1</dim>
					<dim>512</dim>
					<dim>1</dim>
					<dim>1</dim>
				</port>
				<port id="1" precision="I64">
					<dim>2</dim>
				</port>
			</input>
			<output>
				<port id="2" precision="FP32" names="conv_6dw7_7_batchnorm:0">
					<dim>1</dim>
					<dim>512</dim>
				</port>
			</output>
		</layer>
		<layer id="281" name="fc1/mean/Fused_Mul__copy" type="Const" version="opset1">
			<data element_type="f32" shape="128, 512" offset="3710744" size="262144"/>
			<rt_info>
				<attribute name="fused_names" version="0" value="fc1/mean/Fused_Mul__copy"/>
			</rt_info>
			<output>
				<port id="0" precision="FP32" names="fc1_weight:0">
					<dim>128</dim>
					<dim>512</dim>
				</port>
			</output>
		</layer>
		<layer id="282" name="pre_fc1/WithoutBiases" type="MatMul" version="opset1">
			<data transpose_a="false" transpose_b="true"/>
			<rt_info>
				<attribute name="fused_names" version="0" value="pre_fc1/WithoutBiases"/>
			</rt_info>
			<input>
				<port id="0" precision="FP32">
					<dim>1</dim>
					<dim>512</dim>
				</port>
				<port id="1" precision="FP32">
					<dim>128</dim>
					<dim>512</dim>
				</port>
			</input>
			<output>
				<port id="2" precision="FP32">
					<dim>1</dim>
					<dim>128</dim>
				</port>
			</output>
		</layer>
		<layer id="283" name="data_add_93569361" type="Const" version="opset1">
			<data element_type="f32" shape="1, 128" offset="3972888" size="512"/>
			<rt_info>
				<attribute name="fused_names" version="0" value="data_add_93569361"/>
			</rt_info>
			<output>
				<port id="0" precision="FP32">
					<dim>1</dim>
					<dim>128</dim>
				</port>
			</output>
		</layer>
		<layer id="284" name="pre_fc1/Fused_Add_" type="Add" version="opset1">
			<data auto_broadcast="numpy"/>
			<rt_info>
				<attribute name="fused_names" version="0" value="pre_fc1/Fused_Add_"/>
			</rt_info>
			<input>
				<port id="0" precision="FP32">
					<dim>1</dim>
					<dim>128</dim>
				</port>
				<port id="1" precision="FP32">
					<dim>1</dim>
					<dim>128</dim>
				</port>
			</input>
			<output>
				<port id="2" precision="FP32" names="fc1:0">
					<dim>1</dim>
					<dim>128</dim>
				</port>
			</output>
		</layer>
		<layer id="285" name="fc1:0" type="Result" version="opset1">
			<rt_info>
				<attribute name="fused_names" version="0" value="fc1:0"/>
			</rt_info>
			<input>
				<port id="0" precision="FP32">
					<dim>1</dim>
					<dim>128</dim>
				</port>
			</input>
		</layer>
	</layers>
	<edges>
		<edge from-layer="0" from-port="0" to-layer="2" to-port="0"/>
		<edge from-layer="1" from-port="0" to-layer="2" to-port="1"/>
		<edge from-layer="2" from-port="2" to-layer="4" to-port="0"/>
		<edge from-layer="3" from-port="0" to-layer="4" to-port="1"/>
		<edge from-layer="4" from-port="2" to-layer="6" to-port="0"/>
		<edge from-layer="5" from-port="0" to-layer="6" to-port="1"/>
		<edge from-layer="6" from-port="2" to-layer="8" to-port="0"/>
		<edge from-layer="7" from-port="0" to-layer="8" to-port="1"/>
		<edge from-layer="8" from-port="2" to-layer="10" to-port="0"/>
		<edge from-layer="9" from-port="0" to-layer="10" to-port="1"/>
		<edge from-layer="10" from-port="2" to-layer="12" to-port="0"/>
		<edge from-layer="11" from-port="0" to-layer="12" to-port="1"/>
		<edge from-layer="12" from-port="2" to-layer="14" to-port="0"/>
		<edge from-layer="13" from-port="0" to-layer="14" to-port="1"/>
		<edge from-layer="14" from-port="2" to-layer="16" to-port="0"/>
		<edge from-layer="15" from-port="0" to-layer="16" to-port="1"/>
		<edge from-layer="16" from-port="2" to-layer="18" to-port="0"/>
		<edge from-layer="17" from-port="0" to-layer="18" to-port="1"/>
		<edge from-layer="18" from-port="2" to-layer="20" to-port="0"/>
		<edge from-layer="19" from-port="0" to-layer="20" to-port="1"/>
		<edge from-layer="20" from-port="2" to-layer="22" to-port="0"/>
		<edge from-layer="21" from-port="0" to-layer="22" to-port="1"/>
		<edge from-layer="22" from-port="2" to-layer="24" to-port="0"/>
		<edge from-layer="23" from-port="0" to-layer="24" to-port="1"/>
		<edge from-layer="24" from-port="2" to-layer="26" to-port="0"/>
		<edge from-layer="25" from-port="0" to-layer="26" to-port="1"/>
		<edge from-layer="26" from-port="2" to-layer="28" to-port="0"/>
		<edge from-layer="27" from-port="0" to-layer="28" to-port="1"/>
		<edge from-layer="28" from-port="2" to-layer="30" to-port="0"/>
		<edge from-layer="29" from-port="0" to-layer="30" to-port="1"/>
		<edge from-layer="30" from-port="2" to-layer="32" to-port="0"/>
		<edge from-layer="31" from-port="0" to-layer="32" to-port="1"/>
		<edge from-layer="32" from-port="2" to-layer="34" to-port="0"/>
		<edge from-layer="32" from-port="2" to-layer="49" to-port="1"/>
		<edge from-layer="33" from-port="0" to-layer="34" to-port="1"/>
		<edge from-layer="34" from-port="2" to-layer="36" to-port="0"/>
		<edge from-layer="35" from-port="0" to-layer="36" to-port="1"/>
		<edge from-layer="36" from-port="2" to-layer="38" to-port="0"/>
		<edge from-layer="37" from-port="0" to-layer="38" to-port="1"/>
		<edge from-layer="38" from-port="2" to-layer="40" to-port="0"/>
		<edge from-layer="39" from-port="0" to-layer="40" to-port="1"/>
		<edge from-layer="40" from-port="2" to-layer="42" to-port="0"/>
		<edge from-layer="41" from-port="0" to-layer="42" to-port="1"/>
		<edge from-layer="42" from-port="2" to-layer="44" to-port="0"/>
		<edge from-layer="43" from-port="0" to-layer="44" to-port="1"/>
		<edge from-layer="44" from-port="2" to-layer="46" to-port="0"/>
		<edge from-layer="45" from-port="0" to-layer="46" to-port="1"/>
		<edge from-layer="46" from-port="2" to-layer="48" to-port="0"/>
		<edge from-layer="47" from-port="0" to-layer="48" to-port="1"/>
		<edge from-layer="48" from-port="2" to-layer="49" to-port="0"/>
		<edge from-layer="49" from-port="2" to-layer="66" to-port="1"/>
		<edge from-layer="49" from-port="2" to-layer="51" to-port="0"/>
		<edge from-layer="50" from-port="0" to-layer="51" to-port="1"/>
		<edge from-layer="51" from-port="2" to-layer="53" to-port="0"/>
		<edge from-layer="52" from-port="0" to-layer="53" to-port="1"/>
		<edge from-layer="53" from-port="2" to-layer="55" to-port="0"/>
		<edge from-layer="54" from-port="0" to-layer="55" to-port="1"/>
		<edge from-layer="55" from-port="2" to-layer="57" to-port="0"/>
		<edge from-layer="56" from-port="0" to-layer="57" to-port="1"/>
		<edge from-layer="57" from-port="2" to-layer="59" to-port="0"/>
		<edge from-layer="58" from-port="0" to-layer="59" to-port="1"/>
		<edge from-layer="59" from-port="2" to-layer="61" to-port="0"/>
		<edge from-layer="60" from-port="0" to-layer="61" to-port="1"/>
		<edge from-layer="61" from-port="2" to-layer="63" to-port="0"/>
		<edge from-layer="62" from-port="0" to-layer="63" to-port="1"/>
		<edge from-layer="63" from-port="2" to-layer="65" to-port="0"/>
		<edge from-layer="64" from-port="0" to-layer="65" to-port="1"/>
		<edge from-layer="65" from-port="2" to-layer="66" to-port="0"/>
		<edge from-layer="66" from-port="2" to-layer="83" to-port="1"/>
		<edge from-layer="66" from-port="2" to-layer="68" to-port="0"/>
		<edge from-layer="67" from-port="0" to-layer="68" to-port="1"/>
		<edge from-layer="68" from-port="2" to-layer="70" to-port="0"/>
		<edge from-layer="69" from-port="0" to-layer="70" to-port="1"/>
		<edge from-layer="70" from-port="2" to-layer="72" to-port="0"/>
		<edge from-layer="71" from-port="0" to-layer="72" to-port="1"/>
		<edge from-layer="72" from-port="2" to-layer="74" to-port="0"/>
		<edge from-layer="73" from-port="0" to-layer="74" to-port="1"/>
		<edge from-layer="74" from-port="2" to-layer="76" to-port="0"/>
		<edge from-layer="75" from-port="0" to-layer="76" to-port="1"/>
		<edge from-layer="76" from-port="2" to-layer="78" to-port="0"/>
		<edge from-layer="77" from-port="0" to-layer="78" to-port="1"/>
		<edge from-layer="78" from-port="2" to-layer="80" to-port="0"/>
		<edge from-layer="79" from-port="0" to-layer="80" to-port="1"/>
		<edge from-layer="80" from-port="2" to-layer="82" to-port="0"/>
		<edge from-layer="81" from-port="0" to-layer="82" to-port="1"/>
		<edge from-layer="82" from-port="2" to-layer="83" to-port="0"/>
		<edge from-layer="83" from-port="2" to-layer="100" to-port="1"/>
		<edge from-layer="83" from-port="2" to-layer="85" to-port="0"/>
		<edge from-layer="84" from-port="0" to-layer="85" to-port="1"/>
		<edge from-layer="85" from-port="2" to-layer="87" to-port="0"/>
		<edge from-layer="86" from-port="0" to-layer="87" to-port="1"/>
		<edge from-layer="87" from-port="2" to-layer="89" to-port="0"/>
		<edge from-layer="88" from-port="0" to-layer="89" to-port="1"/>
		<edge from-layer="89" from-port="2" to-layer="91" to-port="0"/>
		<edge from-layer="90" from-port="0" to-layer="91" to-port="1"/>
		<edge from-layer="91" from-port="2" to-layer="93" to-port="0"/>
		<edge from-layer="92" from-port="0" to-layer="93" to-port="1"/>
		<edge from-layer="93" from-port="2" to-layer="95" to-port="0"/>
		<edge from-layer="94" from-port="0" to-layer="95" to-port="1"/>
		<edge from-layer="95" from-port="2" to-layer="97" to-port="0"/>
		<edge from-layer="96" from-port="0" to-layer="97" to-port="1"/>
		<edge from-layer="97" from-port="2" to-layer="99" to-port="0"/>
		<edge from-layer="98" from-port="0" to-layer="99" to-port="1"/>
		<edge from-layer="99" from-port="2" to-layer="100" to-port="0"/>
		<edge from-layer="100" from-port="2" to-layer="102" to-port="0"/>
		<edge from-layer="101" from-port="0" to-layer="102" to-port="1"/>
		<edge from-layer="102" from-port="2" to-layer="104" to-port="0"/>
		<edge from-layer="103" from-port="0" to-layer="104" to-port="1"/>
		<edge from-layer="104" from-port="2" to-layer="106" to-port="0"/>
		<edge from-layer="105" from-port="0" to-layer="106" to-port="1"/>
		<edge from-layer="106" from-port="2" to-layer="108" to-port="0"/>
		<edge from-layer="107" from-port="0" to-layer="108" to-port="1"/>
		<edge from-layer="108" from-port="2" to-layer="110" to-port="0"/>
		<edge from-layer="109" from-port="0" to-layer="110" to-port="1"/>
		<edge from-layer="110" from-port="2" to-layer="112" to-port="0"/>
		<edge from-layer="111" from-port="0" to-layer="112" to-port="1"/>
		<edge from-layer="112" from-port="2" to-layer="114" to-port="0"/>
		<edge from-layer="113" from-port="0" to-layer="114" to-port="1"/>
		<edge from-layer="114" from-port="2" to-layer="116" to-port="0"/>
		<edge from-layer="115" from-port="0" to-layer="116" to-port="1"/>
		<edge from-layer="116" from-port="2" to-layer="133" to-port="1"/>
		<edge from-layer="116" from-port="2" to-layer="118" to-port="0"/>
		<edge from-layer="117" from-port="0" to-layer="118" to-port="1"/>
		<edge from-layer="118" from-port="2" to-layer="120" to-port="0"/>
		<edge from-layer="119" from-port="0" to-layer="120" to-port="1"/>
		<edge from-layer="120" from-port="2" to-layer="122" to-port="0"/>
		<edge from-layer="121" from-port="0" to-layer="122" to-port="1"/>
		<edge from-layer="122" from-port="2" to-layer="124" to-port="0"/>
		<edge from-layer="123" from-port="0" to-layer="124" to-port="1"/>
		<edge from-layer="124" from-port="2" to-layer="126" to-port="0"/>
		<edge from-layer="125" from-port="0" to-layer="126" to-port="1"/>
		<edge from-layer="126" from-port="2" to-layer="128" to-port="0"/>
		<edge from-layer="127" from-port="0" to-layer="128" to-port="1"/>
		<edge from-layer="128" from-port="2" to-layer="130" to-port="0"/>
		<edge from-layer="129" from-port="0" to-layer="130" to-port="1"/>
		<edge from-layer="130" from-port="2" to-layer="132" to-port="0"/>
		<edge from-layer="131" from-port="0" to-layer="132" to-port="1"/>
		<edge from-layer="132" from-port="2" to-layer="133" to-port="0"/>
		<edge from-layer="133" from-port="2" to-layer="135" to-port="0"/>
		<edge from-layer="133" from-port="2" to-layer="150" to-port="1"/>
		<edge from-layer="134" from-port="0" to-layer="135" to-port="1"/>
		<edge from-layer="135" from-port="2" to-layer="137" to-port="0"/>
		<edge from-layer="136" from-port="0" to-layer="137" to-port="1"/>
		<edge from-layer="137" from-port="2" to-layer="139" to-port="0"/>
		<edge from-layer="138" from-port="0" to-layer="139" to-port="1"/>
		<edge from-layer="139" from-port="2" to-layer="141" to-port="0"/>
		<edge from-layer="140" from-port="0" to-layer="141" to-port="1"/>
		<edge from-layer="141" from-port="2" to-layer="143" to-port="0"/>
		<edge from-layer="142" from-port="0" to-layer="143" to-port="1"/>
		<edge from-layer="143" from-port="2" to-layer="145" to-port="0"/>
		<edge from-layer="144" from-port="0" to-layer="145" to-port="1"/>
		<edge from-layer="145" from-port="2" to-layer="147" to-port="0"/>
		<edge from-layer="146" from-port="0" to-layer="147" to-port="1"/>
		<edge from-layer="147" from-port="2" to-layer="149" to-port="0"/>
		<edge from-layer="148" from-port="0" to-layer="149" to-port="1"/>
		<edge from-layer="149" from-port="2" to-layer="150" to-port="0"/>
		<edge from-layer="150" from-port="2" to-layer="167" to-port="1"/>
		<edge from-layer="150" from-port="2" to-layer="152" to-port="0"/>
		<edge from-layer="151" from-port="0" to-layer="152" to-port="1"/>
		<edge from-layer="152" from-port="2" to-layer="154" to-port="0"/>
		<edge from-layer="153" from-port="0" to-layer="154" to-port="1"/>
		<edge from-layer="154" from-port="2" to-layer="156" to-port="0"/>
		<edge from-layer="155" from-port="0" to-layer="156" to-port="1"/>
		<edge from-layer="156" from-port="2" to-layer="158" to-port="0"/>
		<edge from-layer="157" from-port="0" to-layer="158" to-port="1"/>
		<edge from-layer="158" from-port="2" to-layer="160" to-port="0"/>
		<edge from-layer="159" from-port="0" to-layer="160" to-port="1"/>
		<edge from-layer="160" from-port="2" to-layer="162" to-port="0"/>
		<edge from-layer="161" from-port="0" to-layer="162" to-port="1"/>
		<edge from-layer="162" from-port="2" to-layer="164" to-port="0"/>
		<edge from-layer="163" from-port="0" to-layer="164" to-port="1"/>
		<edge from-layer="164" from-port="2" to-layer="166" to-port="0"/>
		<edge from-layer="165" from-port="0" to-layer="166" to-port="1"/>
		<edge from-layer="166" from-port="2" to-layer="167" to-port="0"/>
		<edge from-layer="167" from-port="2" to-layer="184" to-port="1"/>
		<edge from-layer="167" from-port="2" to-layer="169" to-port="0"/>
		<edge from-layer="168" from-port="0" to-layer="169" to-port="1"/>
		<edge from-layer="169" from-port="2" to-layer="171" to-port="0"/>
		<edge from-layer="170" from-port="0" to-layer="171" to-port="1"/>
		<edge from-layer="171" from-port="2" to-layer="173" to-port="0"/>
		<edge from-layer="172" from-port="0" to-layer="173" to-port="1"/>
		<edge from-layer="173" from-port="2" to-layer="175" to-port="0"/>
		<edge from-layer="174" from-port="0" to-layer="175" to-port="1"/>
		<edge from-layer="175" from-port="2" to-layer="177" to-port="0"/>
		<edge from-layer="176" from-port="0" to-layer="177" to-port="1"/>
		<edge from-layer="177" from-port="2" to-layer="179" to-port="0"/>
		<edge from-layer="178" from-port="0" to-layer="179" to-port="1"/>
		<edge from-layer="179" from-port="2" to-layer="181" to-port="0"/>
		<edge from-layer="180" from-port="0" to-layer="181" to-port="1"/>
		<edge from-layer="181" from-port="2" to-layer="183" to-port="0"/>
		<edge from-layer="182" from-port="0" to-layer="183" to-port="1"/>
		<edge from-layer="183" from-port="2" to-layer="184" to-port="0"/>
		<edge from-layer="184" from-port="2" to-layer="201" to-port="1"/>
		<edge from-layer="184" from-port="2" to-layer="186" to-port="0"/>
		<edge from-layer="185" from-port="0" to-layer="186" to-port="1"/>
		<edge from-layer="186" from-port="2" to-layer="188" to-port="0"/>
		<edge from-layer="187" from-port="0" to-layer="188" to-port="1"/>
		<edge from-layer="188" from-port="2" to-layer="190" to-port="0"/>
		<edge from-layer="189" from-port="0" to-layer="190" to-port="1"/>
		<edge from-layer="190" from-port="2" to-layer="192" to-port="0"/>
		<edge from-layer="191" from-port="0" to-layer="192" to-port="1"/>
		<edge from-layer="192" from-port="2" to-layer="194" to-port="0"/>
		<edge from-layer="193" from-port="0" to-layer="194" to-port="1"/>
		<edge from-layer="194" from-port="2" to-layer="196" to-port="0"/>
		<edge from-layer="195" from-port="0" to-layer="196" to-port="1"/>
		<edge from-layer="196" from-port="2" to-layer="198" to-port="0"/>
		<edge from-layer="197" from-port="0" to-layer="198" to-port="1"/>
		<edge from-layer="198" from-port="2" to-layer="200" to-port="0"/>
		<edge from-layer="199" from-port="0" to-layer="200" to-port="1"/>
		<edge from-layer="200" from-port="2" to-layer="201" to-port="0"/>
		<edge from-layer="201" from-port="2" to-layer="203" to-port="0"/>
		<edge from-layer="201" from-port="2" to-layer="218" to-port="1"/>
		<edge from-layer="202" from-port="0" to-layer="203" to-port="1"/>
		<edge from-layer="203" from-port="2" to-layer="205" to-port="0"/>
		<edge from-layer="204" from-port="0" to-layer="205" to-port="1"/>
		<edge from-layer="205" from-port="2" to-layer="207" to-port="0"/>
		<edge from-layer="206" from-port="0" to-layer="207" to-port="1"/>
		<edge from-layer="207" from-port="2" to-layer="209" to-port="0"/>
		<edge from-layer="208" from-port="0" to-layer="209" to-port="1"/>
		<edge from-layer="209" from-port="2" to-layer="211" to-port="0"/>
		<edge from-layer="210" from-port="0" to-layer="211" to-port="1"/>
		<edge from-layer="211" from-port="2" to-layer="213" to-port="0"/>
		<edge from-layer="212" from-port="0" to-layer="213" to-port="1"/>
		<edge from-layer="213" from-port="2" to-layer="215" to-port="0"/>
		<edge from-layer="214" from-port="0" to-layer="215" to-port="1"/>
		<edge from-layer="215" from-port="2" to-layer="217" to-port="0"/>
		<edge from-layer="216" from-port="0" to-layer="217" to-port="1"/>
		<edge from-layer="217" from-port="2" to-layer="218" to-port="0"/>
		<edge from-layer="218" from-port="2" to-layer="220" to-port="0"/>
		<edge from-layer="219" from-port="0" to-layer="220" to-port="1"/>
		<edge from-layer="220" from-port="2" to-layer="222" to-port="0"/>
		<edge from-layer="221" from-port="0" to-layer="222" to-port="1"/>
		<edge from-layer="222" from-port="2" to-layer="224" to-port="0"/>
		<edge from-layer="223" from-port="0" to-layer="224" to-port="1"/>
		<edge from-layer="224" from-port="2" to-layer="226" to-port="0"/>
		<edge from-layer="225" from-port="0" to-layer="226" to-port="1"/>
		<edge from-layer="226" from-port="2" to-layer="228" to-port="0"/>
		<edge from-layer="227" from-port="0" to-layer="228" to-port="1"/>
		<edge from-layer="228" from-port="2" to-layer="230" to-port="0"/>
		<edge from-layer="229" from-port="0" to-layer="230" to-port="1"/>
		<edge from-layer="230" from-port="2" to-layer="232" to-port="0"/>
		<edge from-layer="231" from-port="0" to-layer="232" to-port="1"/>
		<edge from-layer="232" from-port="2" to-layer="234" to-port="0"/>
		<edge from-layer="233" from-port="0" to-layer="234" to-port="1"/>
		<edge from-layer="234" from-port="2" to-layer="251" to-port="1"/>
		<edge from-layer="234" from-port="2" to-layer="236" to-port="0"/>
		<edge from-layer="235" from-port="0" to-layer="236" to-port="1"/>
		<edge from-layer="236" from-port="2" to-layer="238" to-port="0"/>
		<edge from-layer="237" from-port="0" to-layer="238" to-port="1"/>
		<edge from-layer="238" from-port="2" to-layer="240" to-port="0"/>
		<edge from-layer="239" from-port="0" to-layer="240" to-port="1"/>
		<edge from-layer="240" from-port="2" to-layer="242" to-port="0"/>
		<edge from-layer="241" from-port="0" to-layer="242" to-port="1"/>
		<edge from-layer="242" from-port="2" to-layer="244" to-port="0"/>
		<edge from-layer="243" from-port="0" to-layer="244" to-port="1"/>
		<edge from-layer="244" from-port="2" to-layer="246" to-port="0"/>
		<edge from-layer="245" from-port="0" to-layer="246" to-port="1"/>
		<edge from-layer="246" from-port="2" to-layer="248" to-port="0"/>
		<edge from-layer="247" from-port="0" to-layer="248" to-port="1"/>
		<edge from-layer="248" from-port="2" to-layer="250" to-port="0"/>
		<edge from-layer="249" from-port="0" to-layer="250" to-port="1"/>
		<edge from-layer="250" from-port="2" to-layer="251" to-port="0"/>
		<edge from-layer="251" from-port="2" to-layer="253" to-port="0"/>
		<edge from-layer="251" from-port="2" to-layer="268" to-port="1"/>
		<edge from-layer="252" from-port="0" to-layer="253" to-port="1"/>
		<edge from-layer="253" from-port="2" to-layer="255" to-port="0"/>
		<edge from-layer="254" from-port="0" to-layer="255" to-port="1"/>
		<edge from-layer="255" from-port="2" to-layer="257" to-port="0"/>
		<edge from-layer="256" from-port="0" to-layer="257" to-port="1"/>
		<edge from-layer="257" from-port="2" to-layer="259" to-port="0"/>
		<edge from-layer="258" from-port="0" to-layer="259" to-port="1"/>
		<edge from-layer="259" from-port="2" to-layer="261" to-port="0"/>
		<edge from-layer="260" from-port="0" to-layer="261" to-port="1"/>
		<edge from-layer="261" from-port="2" to-layer="263" to-port="0"/>
		<edge from-layer="262" from-port="0" to-layer="263" to-port="1"/>
		<edge from-layer="263" from-port="2" to-layer="265" to-port="0"/>
		<edge from-layer="264" from-port="0" to-layer="265" to-port="1"/>
		<edge from-layer="265" from-port="2" to-layer="267" to-port="0"/>
		<edge from-layer="266" from-port="0" to-layer="267" to-port="1"/>
		<edge from-layer="267" from-port="2" to-layer="268" to-port="0"/>
		<edge from-layer="268" from-port="2" to-layer="270" to-port="0"/>
		<edge from-layer="269" from-port="0" to-layer="270" to-port="1"/>
		<edge from-layer="270" from-port="2" to-layer="272" to-port="0"/>
		<edge from-layer="271" from-port="0" to-layer="272" to-port="1"/>
		<edge from-layer="272" from-port="2" to-layer="274" to-port="0"/>
		<edge from-layer="273" from-port="0" to-layer="274" to-port="1"/>
		<edge from-layer="274" from-port="2" to-layer="276" to-port="0"/>
		<edge from-layer="275" from-port="0" to-layer="276" to-port="1"/>
		<edge from-layer="276" from-port="2" to-layer="278" to-port="0"/>
		<edge from-layer="277" from-port="0" to-layer="278" to-port="1"/>
		<edge from-layer="278" from-port="2" to-layer="280" to-port="0"/>
		<edge from-layer="279" from-port="0" to-layer="280" to-port="1"/>
		<edge from-layer="280" from-port="2" to-layer="282" to-port="0"/>
		<edge from-layer="281" from-port="0" to-layer="282" to-port="1"/>
		<edge from-layer="282" from-port="2" to-layer="284" to-port="0"/>
		<edge from-layer="283" from-port="0" to-layer="284" to-port="1"/>
		<edge from-layer="284" from-port="2" to-layer="285" to-port="0"/>
	</edges>
	<meta_data>
		<MO_version value="2022.1.0-7019-cdb9bec7210-releases/2022/1"/>
		<Runtime_version value="2022.1.0-7019-cdb9bec7210-releases/2022/1"/>
		<legacy_path value="True"/>
		<cli_parameters>
			<caffe_parser_path value="DIR"/>
			<compress_fp16 value="False"/>
			<data_type value="float"/>
			<disable_nhwc_to_nchw value="False"/>
			<disable_omitting_optional value="False"/>
			<disable_resnet_optimization value="False"/>
			<disable_weights_compression value="False"/>
			<enable_concat_optimization value="False"/>
			<enable_flattening_nested_params value="False"/>
			<enable_ssd_gluoncv value="False"/>
			<extensions value="DIR"/>
			<framework value="mxnet"/>
			<freeze_placeholder_with_value value="{}"/>
			<input_model value="DIR/model-0000.params"/>
			<input_model_is_text value="False"/>
			<input_shape value="[1,3,112,112]"/>
			<k value="DIR/CustomLayersMapping.xml"/>
			<layout value="()"/>
			<layout_values value="{}"/>
			<legacy_mxnet_model value="False"/>
			<log_level value="ERROR"/>
			<mean_scale_values value="{}"/>
			<mean_values value="()"/>
			<model_name value="model-0000"/>
			<output_dir value="DIR"/>
			<packed_user_shapes value="defaultdict(&lt;class 'list'&gt;, {'data': [{'shape': (1, 3, 112, 112), 'port': None, 'added': True}]})"/>
			<placeholder_data_types value="{}"/>
			<placeholder_shapes value="(1, 3, 112, 112)"/>
			<progress value="False"/>
			<remove_memory value="False"/>
			<remove_output_softmax value="False"/>
			<reverse_input_channels value="False"/>
			<save_params_from_nd value="False"/>
			<scale_values value="()"/>
			<silent value="False"/>
			<source_layout value="()"/>
			<static_shape value="True"/>
			<stream_output value="False"/>
			<target_layout value="()"/>
			<transform value=""/>
			<use_legacy_frontend value="False"/>
			<use_new_frontend value="False"/>
			<unset unset_cli_parameters="batch, counts, disable_fusing, finegrain_fusing, input, input_checkpoint, input_meta_graph, input_proto, input_symbol, mean_file, mean_file_offsets, nd_prefix_name, output, pretrained_model_name, saved_model_dir, saved_model_tags, scale, tensorboard_logdir, tensorflow_custom_layer_libraries, tensorflow_custom_operations_config_update, tensorflow_object_detection_api_pipeline_config, tensorflow_use_custom_operations_config, transformations_config"/>
		</cli_parameters>
	</meta_data>
</net>
